data.pth (torch, 21783 bytes, 6 tensors)

l1.weight f4 [8, 322]
00000000: 7cba 003f 30e6 853f 21cc 3d3f ea7c d23f
00000010: 2311 8a3e 5df3 98bf 285f 5040 5bdf 4ebf
00000020: 31c8 c43f 9f59 28bf f759 083e a681 5d40
00000030: d1b8 f83e 0187 2140 19d2 1240 fcdf dc3e
00000040: 4d5f 2c40 dfae 2b3f a753 93bf 7d0f 753f
00000050: ca47 a83e 4008 2b3f 3640 3840 82ec 8a3e
00000060: 20fa b9be 57df 59bf 3e42 8dbe a083 7dbf
00000070: 0a7d 213d 923d dd3f d329 cb3f 8c64 84bf
00000080: 9615 a9bf 5605 bb3f 1371 be3f 18d8 12be
00000090: 614d 133f 1f7e d93f 232c 923f d128 1fbe
000000a0: a6de 873f f173 4b3f 5f28 24bf 0b3c e93e
000000b0: 0d98 283e 3d29 a93f 87b9 0840 265a 10be
000000c0: 7b93 f9bd 1407 58be fd8b 0b40 ba30 453f
000000d0: fb5c b9be 9751 98bf 02a8 4bbf a7a8 fa3e
000000e0: 8eaa f33f 3a8d 163f ae8d 5540 d6d5 33be
000000f0: 7232 c6be e0e2 b23f adce 45bd bfed 5240
00000100: 89eb 39be e4cb 1e3f c25c 953e cf24 0b3e
00000110: 113e 23bf a327 13be 421c 85bf da1b 383d
00000120: 630a 94be 28c6 233d ca75 99be 6b94 aa3f
00000130: ba9f da3f b509 96bf 2bd5 183f 2f23 1f3f
00000140: 7022 18bf 5214 babe 0f80 37be b97c 133f
00000150: 229e 05c0 3eeb 323f a19d 8a3f 5a45 413f
00000160: 5785 e73e 6f8f 51bf 4d4d 9bbf 9016 2bbe
00000170: 51d1 54be 3f1a c73f 938c a83f 4203 cf3f
00000180: e829 253f eec7 47be 778d 793e 7a91 a43e
00000190: 5579 42bf 58e8 543e 8f75 603f e8e0 1040
000001a0: d2a5 13bf 2eb3 3fbe 3d5a 44be 5f13 02be
000001b0: 67d7 e43e ab44 97be 17a7 dabe b0c1 11bf
000001c0: 4109 743e b4cb 80bf f0df 283f f91a 673f
000001d0: 5a0f b5be b03e 2e40 5b7b c0be eb29 ccbe
000001e0: 0a26 9a3f 6f7f 9cbf dc1f 68be cd64 523f
000001f0: f1bf 0340 426b e4be 8547 a63f 5dbd 92bf
00000200: 5f8a 27be 0da8 9d3f 99f7 76be 4d56 26be
00000210: b531 d83f 5700 aa3f 6066 1fbd 80fb 2e3f
00000220: 703a 1c3e ee17 59be 67e6 0a3f aff8 76be
00000230: f50d 6cbf edf4 803f dbdd 10bf f0cd 03bf
00000240: f26d 61be 2eb4 863e 2754 bd3e 3286 bf3f
00000250: 4fad 193f 4a83 283f bee0 ba3f d25b 4f3e
00000260: fcaa 6a3e 77d1 49be 205f 263f 533e 883d
00000270: f3ba b83f b0ad 313f 022c 133f 43d1 e13e
00000280: 0bce 1240 0ac5 0e40 d4c7 c33f 664b 723f
00000290: 4381 863f 39b8 663f 795d ef3e df2b 713f
000002a0: 5374 bd3f de94 a63e 8253 1dbe 6767 8dbf
000002b0: 525c 8dbf 8e9a eb3f 845f f33f 3bd9 8b3f
000002c0: fef4 1f3f c407 bd3e 0a58 773f 71c4 d53e
000002d0: fcd5 913f fb60 993f 5304 4540 c824 533f
000002e0: 9df2 f139 84e3 49be 2cc1 063f e25f 4c40
000002f0: 4715 13bf 1bad b13f 80d3 3a3f b0e4 933f
00000300: ed4a 0740 a802 b4be e1c8 ba3f 8a26 bbbf
00000310: 8c1d 5d3f 6f66 773f f68b cf3f 0df0 fa3f
00000320: a0ed df3e 951c 2c3f 6ca3 31be 27b2 e73e
00000330: 830c 573f 60c4 f5be 62cd 853f cddf 713f
00000340: eef0 87bf 6e52 b23f 62a1 3b40 4ec5 10bf
00000350: eb24 ebbe 5980 40be b08b 523f 0007 eb3e
00000360: ec3b 09c0 3829 b4be 5320 0bbf 1161 e33f
00000370: 35e9 1840 7547 5e3f 8f8f a63f 432c d93d
00000380: 469a bd3e 984f 363f c76c b0bd 2d5c 1840
00000390: d2d0 16bf 1766 96be 1743 4e3f e561 fc3f
000003a0: 2be4 0abf c6c0 01c0 8c05 f73e 52d4 283d
000003b0: c7a5 3440 0192 553e 2925 86bc 130d a4be
000003c0: 4430 2c3f 2bb9 36bf 3e4e 16be e055 dcbe
000003d0: 809d c83e cf5e 1bbf 7e0c dbbe 85c4 4b3f
000003e0: 493b 963f 71e4 b03f 14d8 2e40 0193 43bf
000003f0: fb51 9c3f 32d3 c23e 26fc 3d3f 51ff bcbd
0.5028455 1.0460873 0.741396 1.6444371 0.269662 -1.1949269 3.2558079 -0.80809563
1.5373594 -0.6576175 0.13315569 3.461038 0.48578504 2.523865 2.2940733 0.43139637
2.6933167 0.6706371 -1.1509904 0.9572676 0.3286727 0.66809464 2.8789191 0.27133566
-0.36323643 -0.85106415 -0.275896 -0.9902897 0.039425887 1.7284415 1.5872139 -1.0343184
-1.3209713 1.4611003 1.4878258 -0.14340246 0.57539946 1.6991614 1.141972 -0.15542914
1.0614822 0.7947379 -0.641241 0.45553622 0.16464253 1.321571 2.1363237 -0.14096889
-0.12186333 -0.2109645 2.1804192 0.77027476 -0.3620375 -1.1899899 -0.79553235 0.48956797
1.9036424 0.58809245 3.3367724 -0.1756204 -0.38710362 1.3975487 -0.048292805 3.2957609
-0.18156256 0.6202986 0.2917233 0.1358826 -0.6376658 -0.14370589 -1.0399249 0.044948436
-0.28914174 0.0399839 -0.29972678 1.3326544 1.7079995 -1.1721712 0.5970027 0.6216306
-0.5942755 -0.36343628 -0.17919944 0.57612187 -2.0877767 0.698902 1.0829355 0.7549645
0.45218918 -0.8185949 -1.2132965 -0.16707826 -0.20782973 1.5554885 1.31679 1.6172869
0.6451707 -0.19509861 0.24370371 0.3214224 -0.7596639 0.20791757 0.8767938 2.2637272
-0.57674897 -0.18720695 -0.19175048 -0.12702702 0.4469559 -0.29544577 -0.42705604 -0.5693617
0.23831655 -1.0062165 0.659667 0.9027553 -0.35363275 2.7225761 -0.37594113 -0.3987573
1.2042859 -1.222639 -0.22668403 0.8218506 2.0585902 -0.4461308 1.2990576 -1.1464039
-0.16361378 1.231691 -0.24117889 -0.16243859 1.6890169 1.3281354 -0.03891599 0.6835251
0.15256667 -0.21200535 0.54257816 -0.24118303 -0.92208797 1.0074745 -0.56588525 -0.5148611
-0.22014597 0.2630934 0.36978266 1.4962828 0.6003007 0.6582533 1.4599836 0.2024987
0.22916788 -0.19708811 0.649889 0.066525124 1.4432052 0.6940565 0.57489026 0.44104967
2.2938259 2.2307763 1.5295358 0.946463 1.0508198 0.9012485 0.46751 0.94207567
1.4801124 0.32535452 -0.15363887 -1.1047181 -1.1043799 1.8406541 1.9013524 1.0925668
0.62483203 0.36919987 0.9661871 0.41751435 1.1393428 1.1982721 3.078389 0.82478
0.00046147863 -0.19715697 0.52638507 3.1933522 -0.5745434 1.3880953 0.72978973 1.1554165
2.113948 -0.35158277 1.4592553 -1.4621136 0.8637321 0.96640676 1.6214588 1.9604508
0.4373598 0.6723111 -0.17347497 0.45253107 0.84003466 -0.48001385 1.0453303 0.9448212
-1.0620401 1.3931406 2.931725 -0.56551063 -0.45926604 -0.18798961 0.82244396 0.45903778
-2.1442823 -0.35187697 -0.543462 1.7763997 2.3892338 0.86827785 1.3012561 0.106041454
0.37031764 0.712152 -0.08614498 2.380626 -0.58912385 -0.29374763 0.8057112 1.9717375
-0.54254407 -2.027391 0.4824642 0.04121811 2.8226182 0.20856477 -0.016375141 -0.32041225
0.6726115 -0.71376294 -0.14678285 -0.43034267 0.39182663 -0.6069154 -0.42782968 0.7959674
1.1736842 1.3819715 2.7319384 -0.76396185 1.2212518 0.38051754 0.74212873 -0.09228385

l1.bias f4 [8]
00000000: eccd 933f 14c4 243f 7ecd 963e cf1d ba3f
00000010: 9b3e 0d3f 5a0a 053f 9864 223f 332e 923f
1.1547217 0.6436169 0.29453653 1.4540347 0.55173653 0.5196892 0.63434744 1.1420349

l2.weight f4 [8, 8]
00000000: 3985 b73d 8c9e 11c0 0fbb c8bf 7b29 c13f
00000010: 8865 81bf 6be4 de3f 1778 8a3f d57e 0d40
00000020: ad7d a23f 789b 6fbe c0e0 0540 179a b5bf
00000030: 044b 51bf 9a16 8a3f 8e0f 213f d087 c63f
00000040: e35f 0740 30a3 613f ffd6 7f3e 2a36 223f
00000050: 3a55 f03e 2ef1 61bf 2a27 2240 39a1 94bf
00000060: 4d8a 0440 8d7d 253f a754 9dbf ca6f 2840
00000070: ece3 a53f 8689 453d 3981 dbbf f851 7bbf
00000080: 8fa0 2fbe 4a04 cd3f 3d2d a33f fde3 f03f
00000090: 1e11 e0bf 21d8 08c0 240e ad3d 8a22 a13f
000000a0: 21c7 c4bf 48ea 0040 0131 d93f 4217 313f
000000b0: 0509 4c40 de44 bc3f 1efe 6e3f fa23 5d3d
000000c0: 911c 3e3d cd5b fe3f 49ef 1e40 675f 353f
000000d0: ae71 3cbf 2696 0340 c07e e6bf ffad 773f
000000e0: 46ad 3140 fcd2 be3f eb68 65be 5c7a a8bf
000000f0: f423 0a3f c5bc 86bd 918c c2bf f9ef 743f
0.08960957 -2.275302 -1.5682086 1.5090784 -1.010911 1.7413458 1.0817899 2.2108662
1.2694603 -0.2339915 2.0918427 -1.418765 -0.8175509 1.0788147 0.6291436 1.5510197
2.1152275 0.8813963 0.24984358 0.633639 0.46940023 -0.88258636 2.5336404 -1.1611701
2.0709412 0.646447 -1.2291459 2.631823 1.2960181 0.048226856 -1.7148811 -0.9817195
-0.17151092 1.6016934 1.2748181 1.8819577 -1.7505224 -2.1381915 0.08449963 1.2588665
-1.5373269 2.0142994 1.696808 0.69176114 3.1880505 1.4708517 0.933565 0.053989388
0.04641396 1.9871765 2.4833548 0.708487 -0.7361096 2.0560393 -1.8007431 0.9674987
2.7762008 1.4908137 -0.22403304 -1.3162341 0.5396111 -0.06578974 -1.5199147 0.9567867

l2.bias f4 [8]
00000000: 016f 0540 57f3 d7be c16f 7c3e 25bf 4a3f
00000010: c389 083f 5dc1 91be 9ab1 13bf 56e8 903f
2.0849001 -0.4217784 0.24652006 0.79197913 0.5333521 -0.28467837 -0.57692873 1.1320903

l3.weight f4 [80, 8]
00000000: ea27 9a3e dbbf 8fbf ac53 e4bf 878a 493f
00000010: 92b4 87c0 76f4 5ebf 3916 f9be 54c2 933f
00000020: 69ae 1bc0 85da 49bf 6d4f c8bf ed74 2a3f
00000030: 5490 87c0 e209 5ebe 0899 023f e65a 313f
00000040: 407a 7dbf e8ca 143f bdb8 42c0 da98 80c0
00000050: d27b 58be b40b 1e3f b731 2c3f e67d ebbf
00000060: aef8 b33f d266 403e 538f 92bf d554 d4bf
00000070: fa90 6ebf 4b2d 163f 4cdb a0be ebb6 17c0
00000080: bb1e 66c0 b6a9 9b3e 485e 293e 0357 793e
00000090: 7be6 efbf 5c32 bfbf f962 78be 1a9d dd3e
000000a0: d2ff 8abe 65d8 1e3e 37c8 28c0 9a7d a3c0
000000b0: 48b4 11c0 8f57 6a3f d68d 823f bc22 a3be
000000c0: be00 e1bc c444 b53d 8426 593f cc5f d9be
000000d0: 6ee3 593f 1bbb edbf a9e2 81bf 8971 2fbf
000000e0: 8a8c 07bf 375d 063f d9a9 8bbe 3f4d d13e
000000f0: 5a18 7bc0 a58e 46c0 863b 6c3f d7a8 c53c
00000100: 49d7 26c0 8fdf f6be 2c60 00be 6788 a9bf
00000110: 3d14 a73e 3ca4 2ebe 206a 15be 2066 48bf
00000120: 8f4b 33bf dd68 0cbf 7803 e2bf eae6 49c0
00000130: 8149 923f 53f5 cfbe 68e3 033f f04c d0be
00000140: ccb2 e63c 306e e7be 80a0 883e 5f5e ccbf
00000150: 9afe 503f e9b3 ccbe 9b67 26bf 6eae 81c0
00000160: 032c 253f f0b2 63be dd69 f03e 8f5d 6dbf
00000170: 23c0 aec0 3634 7c3e cb80 64c0 069c 37c0
00000180: a40c 883e fd4c e93e 6de6 d13e 04d7 7dbe
00000190: d56d e9bf 7ca7 4fbf 6a9c b6be e074 bbc0
000001a0: e10e 1c3f ec8e 9c3c c254 f3bf 55d6 9ec0
000001b0: 6356 1bbe bd4a 77bf f9e7 a53e ec15 043f
000001c0: 4726 42c0 9087 1dbe e9a0 8cbe 3a74 a8bf
000001d0: f35c ccbd fb81 87be 7ce7 7dbf 8681 b23f
000001e0: 2681 25c0 0abf 87be 73e5 03c0 2a05 b4bf
000001f0: d3cb 57bf fad3 453f 9309 bd3e a1db 483e
00000200: f532 5ebf 5a8b 7bbf c722 88be 86a9 27bf
00000210: db46 e1bf fe0b 053f 9413 6cbd 179d 83bf
00000220: 8bf5 0ec0 2aa3 29c0 4cd9 de3e e553 7b3e
00000230: 9119 093f bc67 923e 6959 aac0 57fe 9dc0
00000240: 5ec5 62c0 2d03 d2bf 8977 18bc df60 813e
00000250: 01d5 c8bf 695c 9cbe 0af1 63bd 1bb2 79be
00000260: 720c a5c0 53c3 16c0 4844 5a3e 8e20 0e3e
00000270: a069 673f 5500 07bf 8c06 c5bf 651b 83be
00000280: 4e09 16bf 877c 14be 9607 31be fb97 7cbd
00000290: 7153 90c0 b073 39be e13b c0bf 9cde 0b3f
000002a0: 58d0 20c0 9b16 e3be b6fa 7ebf 93b4 c7bf
000002b0: 1101 273f c8dd 11bf 7a61 a43e 80d7 563b
000002c0: 4ff7 e2bf 41e7 28c0 9624 d33e aa95 a03f
000002d0: 2a8f 5c3e 7f73 83c0 462a 44bf 3aa1 523f
000002e0: 229c 7dbe 62b5 d4c0 42d0 debe c0d5 e03d
000002f0: 9db3 f73e 6cf7 823e df36 bcbe 89e4 c7be
00000300: 913f 00bf 18f6 99c0 d1eb d6bf 6fd1 7b3f
00000310: e618 44c0 771e ff3e 023b 563f add6 8dc0
00000320: f295 443e 6a32 483d 31c7 71bf 8d11 11bf
00000330: b794 103f 656e 67bf 2f40 6c3e 83e5 3dc0
00000340: 65fd d9be 55b8 8abf eafe 20bf c9ae 01bf
00000350: cff0 213f a6a3 3ebf 6418 b23d 0104 ddbe
00000360: ba3a c43f f96c a4bf 6330 24c0 ca52 32be
00000370: 2fae abbf 2141 d63e 8542 aabd d9dc 1cc0
00000380: 0452 28bf 6e3b efc0 d947 ad3d 9369 e83e
00000390: 2696 64bf 89df 9a3e d712 19bf c2c0 9ebe
000003a0: 025d 3d3f 6d00 09c0 277b 6cbf 9d20 353f
000003b0: e190 453f a558 fcbf dab0 2dc0 791f 703f
000003c0: ce55 ebbe fd92 9ec0 841a 6a3f 9183 ca3e
000003d0: 7401 943e a39e cdbf 97c0 bdc0 8dac 5ebd
000003e0: 5324 c93d cef7 e83e a306 1ebf 079c 68c0
000003f0: 3b6c ea3e 97b6 06c0 d9c9 d8bd 116a e43e
0.30108577 -1.1230425 -1.7838035 0.78727 -4.2407923 -0.8709177 -0.48649767 1.1543679
-2.4325202 -0.7884906 -1.5649239 0.66584665 -4.236368 -0.21683457 0.5101476 0.69279325
-0.99014664 0.5812211 -3.0425255 -4.0186586 -0.21140984 0.6173661 0.6726336 -1.8397796
1.4060266 0.18789223 -1.1449989 -1.6588389 -0.93189967 0.5866286 -0.3141731 -2.3705394
-3.5956256 0.30402917 0.16539872 0.24349599 -1.8742212 -1.4937243 -0.24256505 0.4328392
-0.271483 0.15512235 -2.6372201 -5.109082 -2.2766285 0.91539854 1.0199535 -0.31862438
-0.027466174 0.088510066 0.84824395 -0.424559 0.85112655 -1.8572725 -1.0147296 -0.68532616
-0.5294882 0.52485985 -0.2727802 0.40879247 -3.9233613 -3.1024563 0.92278326 0.02412836
-2.60689 -0.48217437 -0.12536687 -1.3244752 0.32632628 -0.17054838 -0.14591265 -0.7828083
-0.7003717 -0.5484751 -1.7657309 -3.1547189 1.1428682 -0.40616855 0.5151887 -0.406837
0.028161429 -0.45201254 0.26684952 -1.59663 0.8163849 -0.3998101 -0.6500184 -4.0525427
0.6452028 -0.22236228 0.46955767 -0.92720884 -5.460954 0.24629292 -3.570361 -2.868898
0.26572144 0.4556655 0.40996113 -0.24789053 -1.8236643 -0.81114936 -0.3566621 -5.858017
0.60960203 0.01911112 -1.9010241 -4.9636636 -0.15169673 -0.96598417 0.32403544 0.5159595
-3.0335863 -0.15383744 -0.27466515 -1.316047 -0.09978666 -0.26466355 -0.9918134 1.3945777
-2.5860076 -0.2651294 -2.0608795 -1.4064076 -0.84295386 0.77276576 0.36921367 0.19615032
-0.86796504 -0.9825951 -0.26589033 -0.6549305 -1.7599748 0.51971424 -0.05763586 -1.0282315
-2.2337368 -2.6505837 0.4352516 0.24543722 0.53554636 0.28594768 -5.3234143 -4.9372973
-3.5432963 -1.6407219 -0.009305843 0.2526922 -1.5690004 -0.30539253 -0.055649795 -0.24384348
-5.157769 -2.3556716 0.2131511 0.13879606 0.90395546 -0.5273488 -1.5392623 -0.25606838
-0.5860795 -0.14500628 -0.1728805 -0.061668377 -4.5101857 -0.18110538 -1.5018274 0.5463655
-2.5127163 -0.44353184 -0.99601305 -1.5601982 0.65236 -0.56979036 0.3210562 0.0032782257
-1.7731723 -2.6391146 0.4123885 1.2545674 0.21538988 -4.1078486 -0.76627004 0.8227726
-0.24766591 -6.6471415 -0.43518263 0.109782696 0.48379222 0.25579393 -0.36760613 -0.39041546
-0.50096995 -4.8112907 -1.6790715 0.98366445 -3.0640197 0.4982793 0.8368379 -4.4324555
0.19197825 0.048876204 -0.94444567 -0.56667405 0.5647692 -0.90402824 0.23071359 -2.9671333
-0.42576137 -1.0837504 -0.6288897 -0.50657326 0.6325807 -0.7446846 0.086960584 -0.43167117
1.5330422 -1.2845756 -2.5654533 -0.17414394 -1.3412532 0.41846564 -0.08313469 -2.4509795
-0.65750146 -7.4760046 0.084609695 0.45393047 -0.8929161 0.3024867 -0.5979437 -0.31006438
0.73970044 -2.140651 -0.92375416 0.7075289 0.7717419 -1.9714552 -2.7139192 0.93798023
-0.459639 -4.955443 0.9144671 0.39553502 0.2890736 -1.6064037 -5.9297595 -0.054363776
0.098213814 0.4550156 -0.61728877 -3.6345232 0.45785698 -2.1048944 -0.105853744 0.44612172

l3.bias f4 [80]
00000000: 167c 953e f9da 1bbf 5bfe 39bf c1a2 a03f
00000010: 855b 0abf 0140 d4bd ff46 acbe c38a cdbe
00000020: a9d9 22bf a7b7 78bf eff9 76be 9e6a 713e
00000030: dfdb 87bf ee99 5cbd 4260 f6be 86f0 f9be
00000040: df69 a43e bc03 e7be 24a3 58bf 546b eebe
00000050: 10de 963e 4c67 d9bf 8c06 1bbe 5b56 8bbd
00000060: afac d3be 6198 c3bf ccee cfbf b797 92bf
00000070: d7c4 bd3d 20db bdbe da79 92bf 03c8 29be
00000080: 6e12 02bf 9bf1 87be b6dc 0cbf 623d 123c
00000090: 0f4d bbbe 9389 1dbe bc82 b63e 66c9 683e
000000a0: b0c4 13bf 2bec 63bf a28c 99be 23dd bd3f
000000b0: b6a5 a13f 7391 173e 3923 c5bf ff12 0dbf
000000c0: e5d6 04bf 1adc a73d 3287 dbbe 571a f8bd
000000d0: af0a 24bc bbc4 c8bf 46c5 db3e 2d0a 13bf
000000e0: 0798 cbbf 3041 35bf fc0c a23e 58c6 08bd
000000f0: 0e85 1ebe eda0 3bbf 0f62 a5bf f9f7 363e
00000100: 85da 8a3e 1714 b7bf f98f ed3e ed56 653e
00000110: 434c c43e 6ae4 a33f a656 a03e ee9d 29bf
00000120: 319c 0ebf 07d0 a7bd 8bdf 3bbd 0510 a9be
00000130: 9f38 7fbf 402c 86bf d7f3 dbbe a18e 0fbf
0.29196233 -0.60881 -0.7265374 1.2549669 -0.540459 -0.1036377 -0.33647916 -0.4014493
-0.63613373 -0.9715523 -0.2411878 0.23575827 -1.0613974 -0.053857736 -0.48120314 -0.48816317
0.32112023 -0.45120037 -0.8462393 -0.4656626 0.29466295 -1.6984649 -0.15139216 -0.068035804
-0.41342685 -1.5280877 -1.624475 -1.145255 0.0926606 -0.37081242 -1.1443436 -0.16580205
-0.5080937 -0.26551518 -0.5502428 0.008925768 -0.3658223 -0.15384512 0.35646617 0.22733077
-0.57721996 -0.8903224 -0.29990107 1.483311 1.2628696 0.14801578 -1.5401374 -0.5510711
-0.51890403 0.08196278 -0.42876583 -0.12114399 -0.010012313 -1.5685037 0.42923945 -0.574374
-1.590577 -0.70802593 0.3165053 -0.03339228 -0.15480444 -0.7329243 -1.292055 0.17868032
0.27119842 -1.4303006 0.46398905 0.22396441 0.38339433 1.2804081 0.31316108 -0.66256607
-0.5570708 -0.08193975 -0.045867484 -0.33020034 -0.9969577 -1.0482254 -0.42959473 -0.5607701
