data.pth (torch, 26519 bytes, 6 tensors)

l1.weight f4 [8, 400]
0.916057 -0.32296553 0.98262596 1.6148592 1.1919875 -1.0795667 0.29697543 -1.6788862
0.009684739 0.7936084 -2.852445 -1.1663198 3.222393 -0.22794583 1.9529234 0.36246002
1.6639924 3.5396667 -0.04150182 2.3505483 -1.2319517 2.9971511 0.07076904 1.4093124
2.9861295 0.14393882 -0.049286835 4.2473493 -0.1757888 -1.554166 0.06792132 -2.3432777
0.9993897 -2.064968 2.0727222 1.3751673 1.6881722 0.69618666 0.8028115 0.57636696
-1.1296557 -0.45001236 1.5280074 -1.098403 0.08036959 0.19015485 2.372217 -3.0821707
-2.2038143 1.8682524 -0.94912565 0.7875946 -0.724623 -1.1241944 1.4294403 0.49838665
-0.24343608 -0.044247434 2.2445416 -0.09925476 0.2565519 0.97315854 2.366124 0.275467
0.30110404 0.03293946 0.8698692 -0.038994987 -0.47406214 1.9074376 1.7834983 2.6486356
0.08403316 1.759177 -0.2872974 -0.42179748 -0.8176441 -2.1386356 0.2302812 3.3545723
-2.0163302 1.1963894 -0.9723556 0.649845 0.85157996 -1.8451246 -0.10976833 -0.7729331
-0.55912614 0.8879209 1.5372345 1.0618781 -0.26135588 1.1494219 -1.8490065 0.4529882
-2.1310122 1.0951633 -1.1421477 1.5364578 1.7955688 0.2196977 -2.5409262 0.8740833
1.041603 1.7245458 1.4616828 0.34754014 0.55567205 -0.17879964 0.23151202 2.1096513
1.2664464 -0.3959987 0.23612794 -0.46272203 0.2719784 -0.9603074 -0.10489933 -0.05875711
0.71406883 2.6833382 -0.04814568 0.08927233 -0.135031 0.85460615 -0.9143103 0.30620784
0.018586408 -2.7092006 -1.1174682 1.722667 0.7026396 2.9875636 0.33791178 0.8283292
3.0322204 0.041688748 1.8649802 -0.13037775 1.6147878 -1.1212057 1.5984741 -1.1143878
-1.1149366 -2.815169 -1.4934902 1.5346041 0.79162323 0.20627691 2.2336297 -1.5118731
-0.02396527 -0.4312814 0.09479407 1.4507326 -0.57441217 -0.17913742 0.8295995 -0.1400752
-0.15596732 0.8660593 0.65738773 0.9444209 0.5339615 0.07231529 -0.4598242 0.10306195
-0.121814094 -0.23173209 0.0775462 -0.84251964 1.1386102 -0.75862765 0.5309443 -1.6330545
0.74493074 -0.060740694 0.4025259 1.2911404 0.9008786 -0.042698465 -0.6437374 1.0225736
2.5510287 -0.49968663 -0.24732964 2.9677901 0.30790636 1.9014697 -0.086891055 1.2118609
1.0392436 1.7004524 -0.607633 0.40230072 0.30255252 0.33348492 0.36695212 -0.49197885
-0.07836625 -2.1623254 -2.313263 1.5086641 -0.16221347 0.21592106 -0.07229404 -0.64009106
0.54318655 -0.41356084 0.38567093 -0.19681756 0.6237394 0.92465633 -0.26902694 -1.2545807
-0.40212652 0.60208017 0.39060974 2.5870981 1.91883 -0.80303955 1.764111 -0.43141568
0.07902863 3.977466 0.015603331 0.01625115 0.37292376 -0.09258959 -0.12402428 1.1412998
-0.55817914 0.54108196 2.3356857 -0.44883928 0.04242124 1.3180181 -0.057561323 1.2936169
-0.47202295 -0.4730548 -0.9249033 -1.3935032 3.7462208 0.4521035 -0.49481878 0.94726443
0.32571843 0.046437018 -0.2689305 -0.6267693 0.04284778 -0.015581914 -0.12791803 -0.5511245
00000000: b682 6a3f bd5b a5be 608d 7b3f b5b3 ce3f
00000010: 0c93 983f 3e2f 8abf 2a0d 983e bee5 d6bf
00000020: bdac 1e3c ec29 4b3f 758e 36c0 f849 95bf
00000030: b03b 4e40 a26a 69be 65f9 f93f 5c94 b93e
00000040: b4fd d43f e689 6240 d0fd 29bd 626f 1640
00000050: 98b0 9dbf 53d1 3f40 5cef 903d 5964 b43f
00000060: bf1c 3f40 b364 133e fee0 49bd 49ea 8740
00000070: fb01 34be e9ee c6bf 551a 8b3d 43f8 15c0
00000080: 01d8 7f3f 7028 04c0 7ba7 0440 7b05 b03f
00000090: 0716 d83f 4a39 323f 0e85 4d3f c98c 133f
000000a0: 8f98 90bf 0568 e6be bf95 c33f 7898 8cbf
000000b0: d098 a43d f4b7 423e 67d2 1740 4942 45c0
000000c0: 4b0b 0dc0 e522 ef3f e6f9 72bf cd9f 493f
000000d0: e580 39bf 9ae5 8fbf e6f7 b63f 892c ff3e
000000e0: 4f47 79be cc3c 35bd 92a6 0f40 1446 cbbd
000000f0: c55a 833e eb20 793f 936e 1740 030a 8d3e
00000100: 4f2a 9a3e 87eb 063d bfaf 5e3f 35b9 1fbd
00000110: 46b8 f2be ea26 f43f ac49 e43f 3f83 2940
00000120: 9419 ac3d b62c e13f a518 93be d7f5 d7be
00000130: 2051 51bf 68df 08c0 d6ce 6b3e 50b1 5640
00000140: 8e0b 01c0 4a23 993f 4cec 78bf 3e5c 263f
00000150: 2501 5a3f 0b2d ecbf 38ce e0bd f2de 45bf
00000160: e422 0fbf c94e 633f 1ac4 c43f 9feb 873f
00000170: 70d0 85be 4220 933f 3fac ecbf 12ee e73e
00000180: 8162 08c0 502e 8c3f e531 92bf a6aa c43f
00000190: 33d5 e53f 6ff8 603e 899e 22c0 ecc3 5f3f
000001a0: 3f53 853f ebbd dc3f 6c18 bb3f c8f0 b13e
000001b0: 8640 0e3f 4117 37be 7d11 6d3e 8704 0740
000001c0: ea1a a23f 57c0 cabe 86cb 713e e7e9 ecbe
000001d0: c140 8b3e b5d6 75bf 76d5 d6bd 4cab 70bd
000001e0: 37cd 363f d0bb 2b40 6834 45bd 69d4 b63d
000001f0: 9145 0abe 78c7 5a3f 3d10 6abf 46c7 9c3e
00000200: 8642 983c 8b63 2dc0 3309 8fbf 5a80 dc3f
00000210: 30e0 333f 3e34 3f40 c602 ad3e 620d 543f
00000220: e60f 4240 d2c1 2a3d acb7 ee3f bf81 05be
00000230: 5eb1 ce3f ab83 8fbf cd9a cc3f 42a4 8ebf
00000240: 3eb6 8ebf bb2b 34c0 b02a bfbf e86d c43f
00000250: d2a7 4a3f 413a 533e caf3 0e40 0f85 c1bf
00000260: d052 c4bc ead0 dcbe 6523 c23d 9bb1 b93f
00000270: ad0c 13bf cd6f 37be a260 543f e06f 0fbe
00000280: e6b5 1fbe 10b6 5d3f 904a 283f 91c5 713f
00000290: b3b1 083f 0a1a 943d 146e ebbe 2512 d33d
000002a0: ab79 f9bd 2d4b 6dbe 8bd0 9e3d 5eaf 57bf
000002b0: fbbd 913f 6c35 42bf f7eb 073f ee07 d1bf
000002c0: c8b3 3e3f 3ccb 78bd e017 ce3e 1744 a53f
000002d0: fb9f 663f 96e4 2ebd f9cb 24bf b1e3 823f
000002e0: 0e44 2340 edd6 ffbe fb43 7dbe 46f0 3d40
000002f0: e7a5 9d3e 5c63 f33f f0f3 b1bd 421e 9b3f
00000300: ef05 853f 6da8 d93f d68d 1bbf 5cfa cd3e
00000310: 2ae8 9a3e 89be aa3e 26e1 bb3e a7e4 fbbe
00000320: 7c7e a0bd 8a63 0ac0 800c 14c0 e81b c13f
00000330: 4a1b 26be 691a 5d3e e60e 94bd 02dd 23bf
00000340: 460e 0b3f 3fbe d3be a976 c53e 8b8a 49be
00000350: 63ad 1f3f 47b6 6c3f e6bd 89be 1a96 a0bf
00000360: 87e3 cdbe ed21 1a3f 00fe c73e 0493 2540
00000370: 399c f53f 0094 4dbf 64ce e13f 84e2 dcbe
00000380: c3d9 a13d ce8e 7e40 1da5 7f3c 2221 853c
00000390: ddef be3e 9c9f bdbd 7100 febd 1d16 923f
000003a0: d4e4 0ebf 5984 0a3f e07b 1540 43ce e5be
000003b0: e5c1 2d3d d1b4 a83f 6cc5 6bbd 3d95 a53f
000003c0: feac f1be 3d34 f2be 76c6 6cbf 505e b2bf
000003d0: 15c2 6f40 1c7a e73e e358 fdbe ec7f 723f
000003e0: 91c4 a63e be34 3e3d 42b1 89be f473 20bf
000003f0: 2781 2f3d 494b 7fbc f2fc 02be 7f16 0dbf

l1.bias f4 [8]
0.99839044 0.5521996 0.5026758 0.6940411 0.74112904 1.2500825 0.80659485 1.5267239
00000000: 8496 7f3f f45c 0d3f 5caf 003f adac 313f
00000010: a2ba 3d3f b402 a03f 007d 4e3f b06b c33f

l2.weight f4 [8, 8]
0.80532074 -1.9518304 -1.1312361 2.841041 2.7351072 1.1484041 -1.1172055 0.6086671
2.543422 -0.26019725 1.5592796 1.010705 1.9787362 0.5919444 1.3355901 -2.1581693
-1.5978175 -1.8221997 -0.3742172 -2.3419816 0.5379625 1.3313873 4.0184817 2.0478647
-0.69760656 2.9870617 3.209237 0.6872762 -2.255317 1.8466085 -0.508963 0.6660244
1.7842518 1.0259533 1.4346883 -0.34993163 2.4839265 -2.0201466 -0.056468748 2.019986
1.7594486 1.2365464 -1.347975 -2.1947708 0.74996156 2.810926 -2.046866 0.11311478
2.2448082 -2.163185 1.2833642 1.5955507 -1.9106374 -0.82497394 0.31404847 2.736479
-0.22229685 0.105127096 -0.17131771 -0.024048388 0.17296574 -0.29072592 -0.2628049 -0.06472829
00000000: 8029 4e3f 94d5 f9bf 58cc 90bf 9ed3 3540
00000010: ff0b 2f40 e8fe 923f 9700 8fbf 9bd1 1b3f
00000020: 6dc7 2240 9338 85be 7996 c73f c85e 813f
00000030: 3a47 fd3f ab89 173f 9ef4 aa3f 721f 0ac0
00000040: 4985 ccbf d73d e9bf 6699 bfbe 07e3 15c0
00000050: e9b7 093f e66a aa3f 6797 8040 3710 0340
00000060: 5896 32bf 052c 3f40 2464 4d40 55f1 2f3f
00000070: 1d57 10c0 ab5d ec3f 664b 02bf 9380 2a3f
00000080: 5d62 e43f 7052 833f dea3 b73f 3d2a b3be
00000090: a7f8 1e40 154a 01c0 c64b 67bd 7347 0140
000000a0: 9d35 e13f 2747 9e3f 728a acbf 2077 0cc0
000000b0: 7bfd 3f3f 36e6 3340 daff 02c0 b9a8 e73d
000000c0: f0aa 0f40 9f71 0ac0 4745 a43f 013b cc3f
000000d0: c48f f4bf 7e31 53bf f6ca a03e 7922 2f40
000000e0: c9a1 63be e04c d73d e96d 2fbe 2001 c5bc
000000f0: ee1d 313e 07da 94be 5d8e 86be 4490 84bd

l2.bias f4 [8]
1.2898462 -0.09596201 1.3802756 0.5439704 0.13728084 0.7661379 0.90444714 -0.11392622
00000000: ae19 a53f bb87 c4bd dfac b03f a541 0b3f
00000010: 5993 0c3e 9d21 443f d989 673f 2652 e9bd

l3.weight f4 [97, 8]
-0.43147963 -1.0154574 -1.278525 -0.25176418 -0.27715963 -1.4188138 1.3054671 -0.1645746
-2.1304195 -1.6250049 -2.968132 1.2439181 0.86656916 -4.3447995 1.0439354 -0.02997592
-1.9721594 1.0731239 -2.6591246 1.1259356 -3.3868175 -0.9140237 -3.7749567 0.27407202
-0.27521557 -0.16322441 0.2525872 1.2695507 -1.375952 -4.5913773 -1.3073468 -0.34014887
-0.4011838 -0.18071409 -3.0125093 0.904091 -0.64618397 -0.99472624 -0.20544405 0.2617769
-5.0423603 1.0718971 -2.626542 0.6933711 0.6498332 -0.27384397 -4.434106 -0.31299573
0.8691657 -0.91647434 1.4261367 -0.03476848 -5.298552 -1.4266567 -1.5058886 0.15362462
-3.7227125 -1.8793539 1.7796844 -0.44143388 -3.0205112 -0.8755354 0.1109607 -0.11477186
-1.6406224 0.23772389 -1.2692066 -0.014058041 0.56929976 -5.987283 0.6931524 0.11547735
1.1113957 0.90365076 0.24149543 -0.31476024 -5.1430025 -0.5056768 -4.875586 0.21443644
-0.032606114 0.9497127 0.368475 -1.7232165 -0.7549517 -0.19543567 -3.589062 0.30865112
-4.56916 0.87087697 0.6257257 -0.98872375 -0.071507275 -3.144412 0.7694361 0.23320296
-2.0559595 1.364551 0.70938116 -0.636765 -3.8619525 -3.0633163 -0.94308484 -0.06664699
0.13935475 0.038041122 -0.2491733 0.08202512 -0.2133759 0.27467537 -5.6286845 -0.122050524
-1.317584 0.37028727 0.5612624 -2.9192924 -0.30829152 0.46149468 -0.04056043 -0.33977142
-1.6147518 -0.5431237 -6.7877617 0.09983355 0.035961397 -0.21861182 1.3094194 -0.09464759
-0.058900956 -1.9725602 -0.74576074 -1.8071399 -0.3917034 0.48367655 0.9342024 0.24057272
-0.8844861 0.91049844 -5.0140095 -0.6520845 0.6098796 -1.503349 -1.9192932 0.15134475
-1.4158038 -0.36136803 1.0158736 -0.71137595 -0.37648043 -2.3056717 -0.09810705 0.0043561757
-3.4288836 -2.5198114 1.1172551 0.19570617 -1.4982165 0.5134564 -2.10812 -0.21910481
-0.18086982 -0.88720185 0.3744482 -0.87296164 0.07317162 -0.39154145 -0.5353061 0.12035665
-3.724584 -1.907506 -0.061805565 0.68075246 0.30195528 -0.058249965 -2.5182269 -0.323812
0.0836279 -0.1262336 -3.1116738 -7.494838 -0.34064204 0.7854745 0.6071958 -0.027102917
-1.7502322 -1.4917791 0.8242558 -1.52664 -0.32715926 0.65273833 0.4899892 0.20555541
0.88385653 -0.15018931 -2.0167956 -1.4686265 -0.10454899 -6.6378984 0.7703671 0.0344491
0.71988636 -2.262585 -0.6585036 -3.5794816 0.78575724 -3.7980082 0.66664827 -0.3337834
-1.4741894 0.72096336 -0.39978972 -1.5917473 1.0306998 -2.5813372 -0.5159094 -0.014041901
-1.3972955 -1.7436169 -1.1864283 -0.7580185 1.110808 0.43087834 -0.004964348 0.073023915
0.1916344 -0.19220698 -1.1380305 -1.3633814 -0.3213204 0.17241278 -0.6414532 0.10994312
0.10615706 0.19836968 0.029918687 -7.9461393 -0.89290154 -1.9372017 1.3735877 0.06893155
0.3579258 0.03924341 -0.89482725 -4.9548235 0.057999697 -0.2330617 -1.0733103 0.23899111
0.44559422 -0.2979901 -0.026318995 -0.059773676 -0.35960206 0.33187282 -4.161379 0.15301505
00000000: e6ea dcbe 82fa 81bf b5a6 a3bf 3ce7 80be
00000010: dee7 8dbe b19b b5bf 8c19 a73f 3e86 28be
00000020: cb58 08c0 2900 d0bf e0f5 3dc0 b538 9f3f
00000030: 7ad7 5d3f 9908 8bc0 ad9f 853f 1090 f5bc
00000040: b86f fcbf 205c 893f 192f 2ac0 a81e 903f
00000050: 9ec1 58c0 75fd 69bf e498 71c0 2b53 8c3e
00000060: 0ee9 8cbe 4d24 27be 1c53 813e a380 a23f
00000070: 321f b0bf 90ec 92c0 2457 a7bf fe27 aebe
00000080: f767 cdbe 1d0d 39be f4cc 40c0 8272 673f
00000090: 506c 25bf 61a6 7ebf ed5f 52be 9f07 863e
000000a0: 045b a1c0 ed33 893f 4419 28c0 c580 313f
000000b0: 785b 263f 4735 8cbe 32e4 8dc0 fa40 a0be
000000c0: a581 5e3f 109e 6abf a68b b63f 6569 0ebd
000000d0: bd8d a9c0 b09c b6bf f5c0 c0bf c64f 1d3e
000000e0: ec40 6ec0 ab8e f0bf b3cc e33f 9f03 e2be
000000f0: 0e50 41c0 1723 60bf 5d3f e33d 820d ebbd
00000100: eaff d1bf e46d 733e 5d75 a2bf b353 66bc
00000110: a1bd 113f d397 bfc0 7072 313f 647f ec3d
00000120: 3742 8e3f a855 673f 944a 773e 4128 a1be
00000130: 7a93 a4c0 0974 01bf cd04 9cc0 3a95 5b3e
00000140: fd8d 05bd 5f20 733f c1a8 bc3e 5c92 dcbf
00000150: 8444 41bf 4a20 48be 31b3 65c0 8507 9e3e
00000160: 8f36 92c0 cbf1 5e3f 8f2f 203f 001d 7dbf
00000170: 6872 92bd 0c3e 49c0 c4f9 443f c2cc 6e3e
00000180: d794 03c0 9ba9 ae3f 019a 353f 0803 23bf
00000190: 3b2a 77c0 600d 44c0 026e 71bf 387e 88bd
000001a0: 03b3 0e3e 02d1 1b3d 4927 7fbe c9fc a73d
000001b0: 367f 5abe 40a2 8c3e 2f1e b4c0 a0f5 f9bd
000001c0: 98a6 a8bf 4b96 bd3e e5ae 0f3f b0d5 3ac0
000001d0: 63d8 9dbe 0849 ec3e b222 26bd 85f6 adbe
000001e0: 30b0 cebf 280a 0bbf 5835 d9c0 8875 cc3d
000001f0: 424c 133d c7db 5fbe 0e9b a73f 98d6 c1bd
00000200: 2142 71bd da7c fcbf 2dea 3ebf 5c50 e7bf
00000210: 598d c8be 74a4 f73e e327 6f3f b258 763e
00000220: ae6d 62bf 6d16 693f c472 a0c0 03ef 26bf
00000230: 1221 1c3f bd6d c0bf 66ab f5bf 1efa 1a3e
00000240: 0f39 b5bf 3b05 b9be 2508 823f bc1c 36bf
00000250: 0bc2 c0be 2090 13c0 59ec c8bd 40be 8e3b
00000260: d472 5bc0 9744 21c0 3702 8f3f 3367 483e
00000270: 8fc5 bfbf e171 033f 70eb 06c0 035d 60be
00000280: f035 39be a91f 63bf adb7 bf3e 6a7a 5fbf
00000290: 01db 953d 1f78 c8be d209 09bf 8c7d f63d
000002a0: 965f 6ec0 2829 f4bf d527 7dbd cb45 2e3f
000002b0: e299 9a3e 8497 6ebd a12a 21c0 b0ca a5be
000002c0: 1b45 ab3d 6143 01be aa25 47c0 b7d5 efc0
000002d0: a268 aebe db14 493f 2f71 1b3f f006 debc
000002e0: 9c07 e0bf 9ef2 bebf 6e02 533f f168 c3bf
000002f0: 6b81 a7be dc19 273f dddf fa3e 1e7d 523e
00000300: 6c44 623f 3acb 19be 2e13 01c0 f4fb bbbf
00000310: c81d d6bd aa69 d4c0 c736 453f 801a 0d3d
00000320: 794a 383f 31ce 10c0 b193 28bf 3a16 65c0
00000330: 6327 493f 9112 73c0 76a9 2a3f a8e5 aabe
00000340: 3db2 bcbf 0e91 383f 3db1 ccbe 60be cbbf
00000350: f9ed 833f a134 25c0 a312 04bf 0010 66bc
00000360: 94da b2bf d72e dfbf e2dc 97bf 800d 42bf
00000370: f52e 8e3f 169c dc3e f8ab a2bb 908d 953d
00000380: cf3b 443e e8d1 44be fcaa 91bf 4883 aebf
00000390: 1c84 a4be fa8c 303e 4736 24bf dc29 e13d
000003a0: df68 d93d 6c21 4b3e 0918 f53c c646 fec0
000003b0: 3295 64bf 3af6 f7bf b9d1 af3f fc2b 8d3d
000003c0: 0d42 b73e b3bd 203d 6613 65bf ea8d 9ec0
000003d0: 1791 6d3d baa7 6ebe 3b62 89bf 16ba 743e
000003e0: ed24 e43e 2992 98be ef9a d7bc 3ed5 74bd
000003f0: c31d b8be 3ceb a93e 042a 85c0 faaf 1c3e

l3.bias f4 [97]
-0.36526555 -0.4638585 -0.70824987 2.3590226 -2.1331007 0.6371279 -0.23632154 0.45430976
0.8045069 -1.0276225 -1.2371575 -0.6260712 -0.16835047 0.550275 -1.1038141 0.14363573
0.030349573 0.1069459 -0.6115984 0.15792711 -1.843373 -0.71838623 -0.37064666 -2.0168796
-0.20646943 -0.573216 -0.51187557 -0.7612225 -1.8130685 1.4125241 -0.7820942 0.0011766761
-2.2480333 -1.1133606 -1.3317732 0.5660775 -0.9065286 -0.13617346 -1.0191629 -0.23440528
-0.09090149 -1.9609451 0.22333543 -0.025929546 -1.0894829 0.03515241 0.02688971 -0.11247622
0.67341113 0.022254942 0.48879743 0.58856636 0.71916395 -0.8658998 -2.2243922 -2.1700609
-1.3134383 -0.555191 0.3791465 -0.30043373 1.2609855 -0.33368114 0.23776497 -0.10264752
-1.1168482 0.1802609 0.0608012 -0.6675641 -1.7635859 -2.568164 0.4598385 0.6494221
-2.5102265 0.10324003 -1.6174536 0.70221084 0.07569183 -0.46368504 -0.2222006 -0.19203962
0.53125256 -1.0423232 -0.04530743 -0.4152316 -0.53798795 -0.6194969 -0.03050419 0.19021389
0.534734 0.38541275 -1.219993 -0.35131294 -0.07165631 -0.245568 -0.9529634 0.012046171
-0.05867163
00000000: 1604 bbbe dc7e edbe dd4f 35bf 3afa 1640
00000010: b984 08c0 d01a 233f 46fe 71be 4a9b e83e
00000020: 2af4 4d3f 2289 83bf 2d5b 9ebf 3446 20bf
00000030: 1164 2cbe d3de 0c3f c849 8dbf 3f15 133e
00000040: ab9f f83c 7406 db3d b691 1cbf a5b7 213e
00000050: a5f3 ebbf 29e8 37bf 66c5 bdbe 8e14 01c0
00000060: b96c 53be 49be 12bf 470a 03bf 7adf 42bf
00000070: a112 e8bf 97cd b43f 5337 48bf b33a 9a3a
00000080: c7df 0fc0 9a82 8ebf 8b77 aabf 74ea 103f
00000090: 4212 68bf 0e71 0bbe ee73 82bf f007 70be
000000a0: 8f2a babd 4000 fbbf 0bb2 643e 336a d4bc
000000b0: 2d74 8bbf f9fb 0f3d cf47 dc3c ef59 e6bd
000000c0: ac64 2c3f ff4f b63c a843 fa3e 49ac 163f
000000d0: 211b 383f 9cab 5dbf 715c 0ec0 47e2 0ac0
000000e0: bf1e a8bf ff20 0ebf 7d1f c23e 73d2 99be
000000f0: f967 a13f 41d8 aabe a978 733e dd38 d2bd
00000100: e2f4 8ebf 5096 383e ae0a 793d 7be5 2abf
00000110: 2fbd e1bf cd5c 24c0 f46f eb3e 8740 263f
00000120: 8da7 20c0 826f d33d b808 cfbf 17c4 333f
00000130: 5104 9b3d 2068 edbe 8e88 63be 09a6 44be
00000140: 2b00 083f d96a 85bf 4994 39bd 3c99 d4be
00000150: 94b9 09bf 5997 1ebf ece3 f9bc 6ec7 423e
00000160: 54e4 083f d254 c53e bb28 9cbf 4adf b3be
00000170: 8bc0 92bd 2e76 7bbe 69f5 73bf 4e5d 453c
00000180: aa51 70bd
