data.pth (torch, 50327 bytes, 6 tensors)

l1.weight f4 [8, 644]
1.4268976 1.14925 1.8666168 -0.25374532 0.8353765 -0.034389585 -0.34373465 1.8526008
3.5468214 1.8641579 0.62882745 1.0521764 -0.63033265 2.8193328 -1.5130969 1.1574235
-2.854388 -3.2613053 2.6757207 1.8908782 2.930645 -0.6384105 2.0513737 1.0070317
1.3928926 0.3635725 -1.288321 1.1318817 -0.03892564 -0.23077771 4.4370184 3.6848285
5.243098 0.5682797 1.3142389 1.9957807 -1.621781 0.35324594 -3.2942848 1.645518
1.2263999 -0.3172213 1.2315961 3.0445275 0.5974878 5.189105 2.724995 -0.21323147
2.7342408 -0.013969024 1.7665719 0.59368575 -1.18312 3.4206848 2.000967 4.3422794
0.414603 -2.2166195 0.67199516 2.1706204 0.25651294 1.0984247 -0.18925175 -1.5669856
0.69765884 2.4019291 0.79682815 0.6019761 0.13718961 2.5662842 2.4885967 -1.721401
-1.1605678 -0.82413036 5.967046 -0.23065117 0.05202772 -0.34781012 -0.08891108 0.3949958
2.2612438 -1.3297384 0.13009642 0.58594334 3.5557044 1.5277443 -0.37734786 -0.44072342
1.4138489 0.70107514 0.022106607 -1.039195 -3.4982274 0.810795 1.1400849 2.614389
2.7699478 2.911915 3.3019269 -1.9024931 -1.8640333 3.3434014 -1.403103 -0.5313025
0.9705553 1.3178082 -0.56460816 -1.2071735 2.2618828 1.6019573 0.75670844 5.900189
-0.8545914 1.4414796 0.692092 -1.2549167 -0.45470542 -1.0783774 -3.5262434 -1.20583
2.73835 -0.012014135 -3.6574323 2.2657015 1.5210576 -0.47426927 0.3860105 -1.9967035
0.68436587 -1.9231807 0.38366285 2.8493624 -0.4752935 1.4888656 1.8001256 -0.54574364
1.7241567 -0.5612455 2.5489194 -1.2969118 2.8415818 1.063654 3.549787 0.45049134
6.390383 2.8644924 0.539657 0.8999831 1.1474582 1.1094234 1.3329457 -0.48194587
2.3297198 2.3880656 -2.0918412 0.6793081 0.10442027 3.4627383 -0.038421094 -0.2206249
0.04594514 3.5374591 2.0522203 1.4222785 -0.5693505 -0.3461188 -2.0829856 -0.41460672
1.3799199 6.618928 0.5698606 -0.15377384 1.0349945 2.4465039 3.1050794 5.299164
0.4787399 1.004138 1.2851958 -1.5316355 -0.40225127 0.83404106 3.0499637 -0.5845264
1.0729799 0.3600309 0.7564797 0.92252326 1.4693452 3.4996607 -1.2823853 -5.202622
0.32765278 -0.73531616 -0.4618086 -1.1043172 1.9105325 -0.05645522 -0.09866701 0.5404009
-1.5594008 0.8631675 0.83612496 0.78293216 -1.7372334 1.2635412 -1.0210083 2.1197352
-0.31989482 1.6856971 0.3145443 4.0450273 0.99099994 0.1210308 2.1343257 -1.1372916
6.1391745 -0.34687665 0.42660925 1.2963666 -0.08306218 1.6320546 2.257917 0.5994984
0.5946959 3.1942346 -0.023558754 3.0782793 0.5824464 0.7088179 -0.6370194 0.73900384
-0.05232146 -0.6544824 -0.69981 3.096729 0.34453863 -0.026985189 0.32769477 -0.07757783
-0.10298783 4.586098 1.1135945 -0.091184 4.568129 4.5586247 -0.63808095 -0.3124888
0.6638838 -0.113809116 -0.7459943 5.0760603 0.3539702 1.325085 -1.7900181 0.5658832
00000000: 95a4 b63f a01a 933f 4ded ee3f e8ea 81be
00000010: 3cdb 553f 18dc 0cbd fdfd afbe 0622 ed3f
00000020: 1fff 6240 ba9c ee3f d6fa 203f b7ad 863f
00000030: 7b5d 21bf f36f 3440 29ad c1bf 7426 943f
00000040: 4bae 36c0 3ab9 50c0 023f 2b40 4c08 f23f
00000050: b08f 3b40 df6e 23bf b549 0340 6ae6 803f
00000060: 4e4a b23f 2d26 ba3e b4e7 a4bf 80e1 903f
00000070: 7e70 1fbd fe50 6cbe 0efc 8d40 3bd4 6b40
00000080: 75c7 a740 c77a 113f fb38 a83f be75 ff3f
00000090: 8596 cfbf a7dc b43e 90d5 52c0 55a0 d23f
000000a0: acfa 9c3f d56a a2be f1a4 9d3f 8ad9 4240
000000b0: f6f4 183f 260d a640 5166 2e40 5a59 5abe
000000c0: cdfd 2e40 55de 64bc 071f e23f cafb 173f
000000d0: 7a70 97bf 80ec 5a40 d80f 0040 f4f3 8a40
000000e0: d846 d43e 18dd 0dc0 e007 2c3f 72eb 0a40
000000f0: aa55 833e 2e99 8c3f 36cb 41be fc92 c8bf
00000100: c599 323f 35b9 1940 eefc 4b3f 1b1b 1a3f
00000110: 6f7b 0c3e 003e 2440 2b45 1f40 de56 dcbf
00000120: 7c8d 94bf 35fa 52bf 0af2 be40 d22f 6cbe
00000130: 051b 553d 2b14 b2be 0317 b6bd e43c ca3e
00000140: 38b8 1040 de34 aabf ff37 053e 6200 163f
00000150: a990 6340 208d c33f bd33 c1be 80a6 e1be
00000160: 00f9 b43f a979 333f ea18 b53c 5704 85bf
00000170: f5e2 5fc0 4390 4f3f 4dee 913f 2652 2740
00000180: d346 3140 d15c 3a40 c552 5340 e584 f3bf
00000190: a598 eebf 4afa 5540 e198 b3bf 7103 08bf
000001a0: 5076 783f f0ad a83f 298a 10bf a984 9abf
000001b0: b0c2 1040 f00c cd3f a5b7 413f 59ce bc40
000001c0: 81c6 5abf 6782 b83f f12c 313f 1ca1 a0bf
000001d0: 26cf e8be 4508 8abf f9ad 61c0 a358 9abf
000001e0: 2041 2f40 efd6 44bc 5f13 6ac0 4101 1140
000001f0: 04b2 c23f 6cd3 f2be 2ba3 c53e fb93 ffbf
00000200: 9a32 2f3f c92a f6bf 756f c43e f45b 3640
00000210: ab59 f3be 2693 be3f 846a e63f dbb5 0bbf
00000220: 2bb1 dc3f c9ad 0fbf 7f21 2340 3501 a6bf
00000230: 7adc 3540 d025 883f b62f 6340 cda6 e63e
00000240: 047e cc40 d853 3740 f626 0a3f 4b65 663f
00000250: e9df 923f 9601 8e3f f79d aa3f 9cc1 f6be
00000260: 211a 1540 11d6 1840 bae0 05c0 23e7 2d3f
00000270: 4bda d53d 819d 5d40 705f 1dbd 7eeb 61be
00000280: f930 3c3d bb65 6240 9457 0340 390d b63f
00000290: f4c0 11bf 7c36 b1be a34f 05c0 5547 d4be
000002a0: 37a1 b03f 42ce d340 62e2 113f e476 1dbe
000002b0: b37a 843f 8593 1c40 9fb9 4640 c092 a940
000002c0: 651d f53e 9887 803f 4c81 a43f a20c c4bf
000002d0: e1f3 cdbe b783 553f 9b32 4340 86a3 15bf
000002e0: 6857 893f f855 b83e a7a8 413f 7c2a 6c3f
000002f0: 8113 bc3f 71fa 5f40 3425 a4bf e17b a6c0
00000300: 1bc2 a73e ae3d 3cbf 2d72 ecbe 445a 8dbf
00000310: 548c f43f 973d 67bd ee11 cabd b757 0a3f
00000320: 729a c7bf 8cf8 5c3f 490c 563f 3e6e 483f
00000330: aa5d debf b8bb a13f 66b0 82bf bea9 0740
00000340: 41c9 a3be ecc4 d73f f30b a13e dd70 8140
00000350: 2cb2 7d3f ffde f73d cb98 0840 c592 91bf
00000360: 1e74 c440 d199 b1be 876c da3e 57ef a53f
00000370: 811c aabd 2ae7 d03f b681 1040 ba78 193f
00000380: fe3d 183f 576e 4c40 4afe c0bc 8702 4540
00000390: 351b 153f 1775 353f b413 23bf 5b2f 3d3f
000003a0: 074f 56bd 298c 27bf c026 33bf cf30 4640
000003b0: 5e67 b03e 0b10 ddbc 9cc7 a73e 20e1 9ebd
000003c0: 49eb d2bd 51c1 9240 448a 8e3f adbe babd
000003d0: 1d2e 9240 41e0 9140 4659 23bf 88fe 9fbe
000003e0: 4af4 293f c114 e9bd 7cf9 3ebf 166f a240
000003f0: 953b b53e 639c a93f 501f e5bf b9dd 103f

l1.bias f4 [8]
0.89383 0.91338426 1.1216155 0.9160687 0.546709 0.61713356 0.28211725 0.8605687
00000000: 0bd2 643f 8dd3 693f 1991 8f3f 7a83 6a3f
00000010: 1ff5 0b3f 77fc 1d3f ac71 903e 3b4e 5c3f

l2.weight f4 [8, 8]
-0.91793835 -1.2812457 1.6905909 0.39402813 -1.7076186 -1.1499361 4.381983 1.7931957
-1.1194248 2.395902 1.3592349 -0.61148876 -0.56948614 2.9099529 0.10238907 -0.41464958
2.6717618 1.8425945 0.70686847 2.7650714 -3.3089993 -0.07035237 -0.6455964 -2.6831102
3.6538887 -1.6738933 2.7196276 -1.7667016 -0.57688576 -0.64013606 1.8231375 -0.42102197
0.2018471 3.14607 0.036897454 -2.5441132 -1.2994092 0.5182406 1.2069263 1.6811817
-0.86655146 0.97197306 0.9982216 2.2255461 4.491991 -0.93412685 2.0027087 -1.9664257
3.359498 -2.677471 -1.3849769 0.8168646 1.5109024 2.9758196 -1.5464324 3.6959417
-1.2640234 -0.72861737 2.6736941 0.92124224 -1.8352759 1.3093747 -1.9907961 1.6123416
00000000: 02fe 6abf dcff a3bf 4865 d83f 0ebe c93e
00000010: 3f93 dabf 1b31 93bf 3439 8c40 7087 e53f
00000020: 5049 8fbf 7556 1940 69fb ad3f 878a 1cbf
00000030: d8c9 11bf ab3c 3a40 5cb1 d13d f34c d4be
00000040: 25fe 2a40 23da eb3f 55f5 343f eef6 3040
00000050: a5c6 53c0 e714 90bd ce45 25bf 14b8 2bc0
00000060: 50d9 6940 2342 d6bf 610e 2e40 4723 e2bf
00000070: c9ae 13bf f5df 23bf 925c e93f 3190 d7be
00000080: 02b1 4e3e 3659 4940 c921 173d c0d2 22c0
00000090: 0a53 a6bf 6aab 043f 907c 9a3f f630 d73f
000000a0: 51d6 5dbf 3ad3 783f 738b 7f3f 596f 0e40
000000b0: 64be 8f40 f022 6fbf 612c 0040 d6b3 fbbf
000000c0: 0402 5740 af5b 2bc0 ec46 b1bf 0a1e 513f
000000d0: 4065 c13f d473 3e40 7ff1 c5bf 4f8a 6c40
000000e0: 85cb a1bf ab86 3abf ce1d 2b40 88d6 6b3f
000000f0: 52ea eabf 9799 a73f 68d2 febf 3661 ce3f

l2.bias f4 [8]
0.8389718 -2.6417642 1.2534093 -1.0115741 1.7855837 -1.1060822 0.36530632 2.0133178
00000000: dbc6 563f aa12 29c0 b76f a03f 437b 81bf
00000010: 028e e43f 1a94 8dbf 6e09 bb3e 33da 0040

l3.weight f4 [313, 8]
0.8991403 -0.4807288 -3.0747044 0.08239981 1.0064279 -2.895391 -7.1935678 -6.7697744
-0.48562515 1.0298003 -3.197833 -2.0779536 0.4427424 -2.8278763 -0.5673077 -5.0326624
-2.6905432 -0.09098967 -14.554846 -0.95305413 0.40113893 -2.7533615 0.54796845 0.21917285
-0.24100934 -3.7713184 -12.293517 1.666571 -0.8119702 -2.2383857 -0.29335448 -0.34272024
-5.744237 -1.2166929 -2.4372153 1.7692053 1.4105834 -3.423116 -0.23941004 -1.2979307
-9.504976 -0.2599403 -2.2527776 -5.6967025 -0.9211107 0.27200675 0.5314142 -10.595193
-0.054882023 0.8575167 -7.3447084 -1.0698739 -4.208869 -0.942024 0.45413664 -0.18703775
-0.36641794 -3.9278083 -6.1730633 1.5881361 -0.24242586 -8.098152 0.20266429 -4.667529
-9.157405 -0.2832834 -0.7444231 -8.248599 -1.2951611 -1.7359155 1.4242681 -8.335692
-5.4050612 -10.299912 -0.37492445 -2.2761278 0.015947614 -0.22888972 0.7227223 -7.2327824
-5.324888 1.5094376 1.2245479 -5.8281536 -6.881464 -0.7901299 -10.745872 1.3015603
-12.156051 0.9990013 0.60843 -8.07391 -2.1179826 0.31689614 -5.36046 -0.1849089
-7.1154876 1.0385543 -1.472279 -8.343714 -2.461463 -6.5686045 0.23339033 1.4538864
-0.4727744 -1.8342324 -0.31665006 0.13396424 -0.58769757 -2.3780508 0.26826578 -0.09505078
0.587253 0.4027137 -7.358175 -2.568991 0.31428617 -0.29536214 -6.1919923 -8.407469
-0.043768603 -1.9969828 -1.0296525 0.4251832 -0.024525193 -0.34631726 -0.96519834 -1.4766688
-0.37963644 1.0452089 0.8778908 -5.7727814 -0.8005205 -0.6477278 -8.378003 -3.1124287
-2.876447 -7.9548917 0.7973354 -5.098324 -6.8477106 -4.3598585 1.0421958 0.5103484
0.705984 1.3657777 -7.1388216 -3.3375273 -1.5704197 -6.819012 0.39489186 -1.0804641
-10.552153 -9.071656 -4.648531 -6.868549 -5.462101 -0.57147086 0.9773162 1.1648194
-0.188085 -0.0805057 -12.06573 1.1685331 -2.1068876 -1.5832478 -0.3426975 -0.22141534
-0.48269928 -0.78605986 -0.7025502 -0.9604924 0.6074525 -0.21951312 -0.6947144 -1.5591333
-0.68636596 -0.09324557 -0.34285775 0.39044264 0.032036357 -1.1904148 0.0020685992 -8.414743
0.22246513 1.3384414 -9.929739 0.9734216 -0.43268907 -2.4502017 -2.0862234 -2.8228667
-3.3620734 1.8198043 -1.524721 -6.722788 0.10544847 -1.7349902 -0.86959946 -2.7797463
-0.29048702 -0.21382584 -0.29278487 -0.2815926 0.015943298 -0.6785341 -0.8744673 -0.17239732
-4.6446033 0.5900301 -9.378812 -2.164982 -0.88785976 -0.6045662 0.21650486 0.37954685
-0.51230735 0.97863555 -9.265457 0.90045303 0.58334994 -2.9452856 -0.6416253 -4.76157
0.3450264 -2.4694092 -0.65529126 0.07065295 -0.25246203 -0.21930778 -1.7817433 -1.0152339
-2.603455 -5.073866 -3.0986135 0.9649378 -4.7928157 -0.010004824 -1.1173812 1.6049311
-2.5580444 -0.42642745 -0.84657 -8.437426 1.1527774 -2.726538 0.13582662 -5.7602057
-0.26011878 -13.378275 1.3806481 -0.2925426 -1.0312178 -2.4312823 -0.052471876 -2.1563094
00000000: 0f2e 663f 1622 f6be f5c7 44c0 3bc1 a83d
00000010: a1d2 803f 164e 39c0 b531 e6c0 fea1 d8c0
00000020: dca3 f8be 7fd0 833f 4ca9 4cc0 31fd 04c0
00000030: 22af e23e edfb 34c0 143b 11bf 920b a1c0
00000040: dc31 2cc0 cb58 babd a6e0 68c1 5bfb 73bf
00000050: 1562 cd3e 1337 30c0 a947 0c3f d96e 603e
00000060: 27cb 76be 485d 71c0 3fb2 44c1 3352 d53f
00000070: 47dd 4fbf b641 0fc0 8f32 96be 0779 afbe
00000080: cad0 b7c0 98bc 9bbf 56fb 1bc0 5275 e23f
00000090: ff8d b43f 5514 5bc0 e827 75be 9822 a6bf
000000a0: 6214 18c1 e516 85be 822d 10c0 634b b6c0
000000b0: e9cd 6bbf 7844 8b3e c30a 083f e985 29c1
000000c0: f9cb 60bd 3786 5b3f da07 ebc0 a1f1 88bf
000000d0: 0eaf 86c0 7c28 71bf 9984 e83e d386 3fbe
000000e0: 229b bbbe 3661 7bc0 bc89 c5c0 0b48 cb3f
000000f0: 7c3e 78be 0892 01c1 3a87 4f3e 665c 95c0
00000100: bb84 12c1 860a 91be 8392 3ebf 43fa 03c1
00000110: d7c7 a5bf 7b32 debf 6b4e b63f ff5e 05c1
00000120: 43f6 acc0 71cc 24c1 19f6 bfbe 14ac 11c0
00000130: 92a4 823c 1162 6abe 5404 393f f472 e7c0
00000140: 7c65 aac0 4035 c13f fcbd 9c3f 3c80 bac0
00000150: f434 dcc0 f445 4abf 17ef 2bc1 8799 a63f
00000160: 2f7f 42c1 8dbe 7f3f 12c2 1b3f bc2e 01c1
00000170: 078d 07c0 3640 a23e e388 abc0 c258 3dbe
00000180: 13b2 e3c0 59ef 843f a373 bcbf da7f 05c1
00000190: 9c88 1dc0 0232 d2c0 e0fd 6e3e f318 ba3f
000001a0: 7c0f f2be 21c8 eabf f51f a2be ec2d 093e
000001b0: 5973 16bf fc31 18c0 225a 893e fca9 c2bd
000001c0: 3656 163f 7d30 ce3e 2b76 ebc0 596a 24c0
000001d0: 1eea a03e b539 97be cd24 c6c0 fe84 06c1
000001e0: b546 33bd 229d ffbf a7cb 83bf 9db1 d93e
000001f0: 0fe9 c8bc 7f50 b1be 3d17 77bf 7c03 bdbf
00000200: b55f c2be 68c9 853f 74bd 603f a0ba b8c0
00000210: e9ee 4cbf 7dd1 25bf 4d0c 06c1 0832 47c0
00000220: b517 38c0 798e fec0 2c1e 4c3f 7825 a3c0
00000230: 7220 dbc0 f683 8bc0 ac66 853f 31a6 023f
00000240: 5ebb 343f ced1 ae3f 3a71 e4c0 0c9a 55c0
00000250: 8303 c9bf 5935 dac0 442f ca3e a64c 8abf
00000260: 9ed5 28c1 8125 11c1 c4c0 94c0 27cb dbc0
00000270: 88c9 aec0 ea4b 12bf 6531 7a3f cd18 953f
00000280: 5b99 40be 2ce0 a4bd 3b0d 41c1 7e92 953f
00000290: 3fd7 06c0 dda7 cabf 0c76 afbe b4ba 62be
000002a0: 5c24 f7be 383b 49bf 54da 33bf d4e2 75bf
000002b0: 0282 1b3f 0cc8 60be ced8 31bf ae91 c7bf
000002c0: aeb5 2fbf 89f7 bebd 0d8b afbe 19e8 c73e
000002d0: 8e38 033d 835f 98bf 5691 073b caa2 06c1
000002e0: e6cd 633e 0c52 ab3f 36e0 1ec1 2832 793f
000002f0: 6c89 ddbe 1bd0 1cc0 af84 05c0 d9a9 34c0
00000300: 362c 57c0 59ef e83f 0f2a c3bf 1421 d7c0
00000310: 5ef5 d73d 2914 debf 129e 5ebf 5de7 31c0
00000320: b7ba 94be 29f5 5abe e6e7 95be e82c 90be
00000330: 859b 823c 69b4 2dbf 17dd 5fbf ec88 30be
00000340: 97a0 94c0 360c 173f 9d0f 16c1 118f 0ac0
00000350: c74a 63bf dac4 1abf 73b3 5d3e f753 c23e
00000360: 9326 03bf dc87 7a3f 503f 14c1 1784 663f
00000370: 6c56 153f 8f7f 3cc0 8e41 24bf c85e 98c0
00000380: 4da7 b03e cd0a 1ec0 2bc1 27bf 7eb2 903d
00000390: b442 81be 3892 60be 2a10 e4bf 2ff3 81bf
000003a0: 029f 26c0 1c5d a2c0 af4f 46c0 2a06 773f
000003b0: bf5e 99c0 46eb 23bc 5906 8fbf 626e cd3f
000003c0: 00b7 23c0 b354 dabe d0b8 58bf b2ff 06c1
000003d0: 368e 933f 997f 2ec0 2216 0b3e 9b53 b8c0
000003e0: 4a2e 85be 6a0d 56c1 14b9 b03f 25c8 95be
000003f0: f2fe 83bf 219a 1bc0 c0ec 56bd f900 0ac0

l3.bias f4 [313]
-1.8098955 -1.0554358 -0.13067894 -1.379097 -0.27091652 -2.8665984 -4.309544 -2.1196241
-4.7286215 3.6327786 -0.36629862 -1.4029695 -2.8358474 -0.6385056 -2.5792027 -0.2158871
-4.869229 -0.9792938 -3.001664 -1.5975327 -4.1431155 0.70503473 -0.8155198 -2.9383838
-4.8767385 -1.4581821 -4.761125 -2.1994305 0.31735995 -0.94239587 -2.06262 0.46275526
-0.6708297 -2.0423276 0.32790914 0.9042027 -1.1135914 -1.1377493 -0.40048283 0.15826134
0.22031601 -0.13696055 -2.879607 -2.0309489 -1.9142963 -0.23911193 2.632546 -2.2235959
-1.3359157 -2.0192351 -3.5453503 -1.9120406 -3.1482244 -0.40404782 -0.32874605 -5.9497566
-3.2663667 -2.5435615 -0.8055166 -2.6349008 -2.2752542 -2.0000753 -3.2464006 -7.288783
-3.862809 -0.2919968 -0.2782517 -0.12533695 -1.2825952 -2.3010871 -2.9034996 -2.1956637
-0.33533815 0.15841843 -5.032378 -0.8873546 -0.2719769 -0.51246876 -1.6808988 -3.8088615
-2.7648103 -1.0197277 0.15407406 0.06048548 0.33707172 -2.6352036 -4.787078 -1.6520687
-3.2826326 -1.6990517 -0.37200847 -3.7986486 -3.4461455 -5.3259125 -0.22652474 -3.688694
-4.300184 -2.862785 -2.946178 -0.05372114 -4.791247 -1.6297516 -1.9828169 -3.4596694
-2.966574 -1.3660917 -2.7724721 -0.18592538 -0.33018535 -0.7466768 -3.8122523 -0.3009255
-4.503021 -4.5966883 -1.1489873 -1.2770462 -0.5215997 -1.0402071 -0.65705127 -1.7180066
0.18365622 -0.41296628 -0.2931248 -2.4214675 -2.6021433 -5.891001 -3.9530823 -1.217246
-0.9686437 -1.258959 -1.272963 -0.97739136 0.47703168 -0.5190373 -0.36496398 -4.101926
-3.7526488 -2.5707262 -1.7249627 -3.95615 -1.6912807 -4.061758 -3.1108325 -4.376278
-3.4643128 -3.7455208 -0.26058835 -3.7173774 -0.7521343 -0.28702706 -0.4497477 -2.521709
-0.46100014 2.6841938 -0.7279453 0.7984759 -0.098657064 -1.5583649 -0.73569906 -2.9746232
-1.2322515 0.7622528 -0.66790885 0.08907631 1.4800261 -4.177892 -1.2963773 -2.384502
0.09694323 -2.1064246 1.6519302 -4.073638 -1.4351208 -0.18300925 0.31952408 -3.8951895
1.2436513 -3.7552824 -1.4932073 -2.6617908 -0.03873114 -2.869424 0.48180878 -0.08187958
-0.82944596 -2.0362384 0.55637985 -0.38320473 -1.2599307 -3.0889928 -1.2236407 -0.20936641
-2.4035506 -2.1935332 -2.1525357 -0.8490168 -1.1899143 -1.8129296 -3.816683 -2.5814474
0.22482029 -0.3991777 -1.5676174 0.58322734 -2.1867409 -2.3773654 1.4930035 -1.8830194
-1.2122773 -1.7753222 -2.4498713 -3.9389694 -0.5305382 0.8795203 -1.7481761 0.47904372
-0.8479978 -2.15446 -1.3955934 0.1661289 0.10740012 -0.74242914 -2.065237 -3.234551
-1.6583058 -2.601981 -0.2950861 -4.4206004 0.82361335 -0.038605608 0.94906867 -1.7937366
-1.3941 -1.5336038 -0.86160994 -3.0513651 -0.49409038 -2.6733348 0.86230576 -0.8906957
-0.20590147 -1.7585478 -1.0678787 -1.6366729 1.1339977 -2.1873984 -1.6864614 -2.3950772
-3.162752 -1.4001185 -2.1199079 -3.093752 2.8522499 0.75638455 -1.7256541 -1.9130199
00000000: a8aa e7bf 8518 87bf b3d0 05be 4086 b0bf
00000010: 92b5 8abe 5976 37c0 c9e7 89c0 eca7 07c0
00000020: de50 97c0 727f 6840 7e8b bbbe 8194 b3bf
00000030: 867e 35c0 1a75 23bf a811 25c0 8211 5dbe
00000040: b9d0 9bc0 00b3 7abf 431b 40c0 f47b ccbf
00000050: 6794 84c0 287d 343f e8c5 50bf 7b0e 3cc0
00000060: 3e0e 9cc0 b6a5 babf 235b 98c0 78c3 0cc0
00000070: 017d a23e db40 71bf f701 04c0 42ee ec3e
00000080: 7fbb 2bbf 7fb5 02c0 b5e3 a73e d479 673f
00000090: 2a8a 8ebf c5a1 91bf 160c cdbe 430f 223e
000000a0: 859a 613e 633f 0cbe 7b4b 38c0 11fb 01c0
000000b0: a907 f5bf c2d9 74be a27b 2840 654f 0ec0
000000c0: 49ff aabf 263b 01c0 05e7 62c0 bfbd f4bf
000000d0: 827c 49c0 5bdf cebe 6751 a8be 6864 bec0
000000e0: 270c 51c0 b6c9 22c0 5636 4ebf 37a2 28c0
000000f0: c49d 11c0 3c01 00c0 07c5 4fc0 b63d e9c0
00000100: 4338 77c0 9b80 95be 0277 8ebe 5458 00be
00000110: 142c a4bf 0345 13c0 f0d2 39c0 c185 0cc0
00000120: 71b1 abbe 7138 223e 3e09 a1c0 ac29 63bf
00000130: 8e40 8bbe 2731 03bf b127 d7bf 63c4 73c0
00000140: a7f2 30c0 7086 82bf 97c5 1d3e 9fbf 773d
00000150: aa94 ac3e 2da7 28c0 be2f 99c0 fd76 d3bf
00000160: a716 52c0 877a d9bf e577 bebe 0f1d 73c0
00000170: a68d 5cc0 e06d aac0 1af6 67be 9013 6cc0
00000180: 1b9b 89c0 df37 37c0 2e8e 3cc0 b30a 5cbd
00000190: e551 99c0 b39b d0bf f2cc fdbf 396b 5dc0
000001a0: 59dc 3dc0 18dc aebf 2f70 31c0 3963 3ebe
000001b0: 0e0e a9be 3626 3fbf f1fb 73c0 e812 9abe
000001c0: bf18 90c0 1218 93c0 0412 93bf 4076 a3bf
000001d0: 8f87 05bf 8225 85bf 8334 28bf a4e7 dbbf
000001e0: 6010 3c3e 5170 d3be 7414 96be 53f9 1ac0
000001f0: 8489 26c0 1583 bcc0 4dff 7cc0 b8ce 9bbf
00000200: 09f9 77bf 9225 a1bf 74f0 a2bf 5236 7abf
00000210: 7f3d f43e a1df 04bf 8fdc babe fa42 83c0
00000220: 662b 70c0 c786 24c0 94cb dcbf 9031 7dc0
00000230: e37b d8bf ecf9 81c0 e117 47c0 780a 8cc0
00000240: 4db7 5dc0 9db6 6fc0 d66b 85be 83e9 6dc0
00000250: e08b 40bf 36f5 92be 5545 e6be ae63 21c0
00000260: 3608 ecbe d5c9 2b40 a05a 3abf eb68 4c3f
00000270: b70c cabd 8078 c7bf c656 3cbf 3a60 3ec0
00000280: 6bba 9dbf 0023 433f 13fc 2abf a46d b63d
00000290: 7f71 bd3f 4bb1 85c0 b1ef a5bf ae9b 18c0
000002a0: 2c8a c63d a9cf 06c0 7372 d33f 3e5b 82c0
000002b0: 0ab2 b7bf c766 3bbe a998 a33e c94a 79c0
000002c0: f72f 9f3f 8c56 70c0 6b21 bfbf c85a 2ac0
000002d0: 8ba4 1ebd a5a4 37c0 a4af f63e 7bb0 a7bd
000002e0: 9256 54bf bb51 02c0 e96e 0e3f 6933 c4be
000002f0: 6945 a1bf 0fb2 45c0 42a0 9cbf 2664 56be
00000300: c6d3 19c0 d962 0cc0 25c3 09c0 2a59 59bf
00000310: 1d4f 98bf 140e e8bf 8944 74c0 6f36 25c0
00000320: 4a37 663e 0561 ccbe b0a7 c8bf 634e 153f
00000330: 90f3 0bc0 c126 18c0 bd1a bf3f c806 f1bf
00000340: e72b 9bbf c23d e3bf b1ca 1cc0 1318 7cc0
00000350: 5ad1 07bf 3e28 613f 3cc4 dfbf 3845 f53e
00000360: 6216 59bf ace2 09c0 cea2 b2bf b21d 2a3e
00000370: 98f4 db3d d60f 3ebf d82c 04c0 e202 4fc0
00000380: 5d43 d4bf db86 26c0 8615 97be 8f75 8dc0
00000390: 53d8 523f ea20 1ebd 2af6 723f 2999 e5bf
000003a0: de71 b2bf 214d c4bf 7892 5cbf 9149 43c0
000003b0: 6af9 fcbe eb17 2bc0 12c0 5c3f a204 64bf
000003c0: d6d7 52be 1818 e1bf 40b0 88bf 7f7e d1bf
000003d0: d626 913f 56fe 0bc0 f8dd d7bf f248 19c0
000003e0: 876a 4ac0 1537 b3bf 92ac 07c0 0800 46c0
000003f0: 438b 3640 6ba2 413f 3ce2 dcbf d6dd f4bf
