data.pth (torch, 48983 bytes, 6 tensors)

l1.weight f4 [8, 632]
0	0x3eee2898	0.46515346
1	0x3f8a3936	1.0798709
2	0xbfa57dd8	-1.292903
3	0x3f45b63f	0.7723121
4	0x3f87781f	1.0583533
5	0xbf78e5c3	-0.9722559
6	0x3eefa29d	0.46803752
7	0x3f9fa7e7	1.2473115
8	0xbf00af7c	-0.5026777
9	0xbdab74f0	-0.083719134
10	0x3f5252c8	0.82157564
11	0x3f8dbfe2	1.1074183
12	0xbf2ef60b	-0.6834418
13	0x40463108	3.0967426
14	0x3e571259	0.21003093
15	0xbdcf6cb5	-0.10128156
16	0x4035bd89	2.8396933
17	0xbf91f498	-1.1402769
18	0x40804e08	4.0095253
19	0x403dd978	2.9663982
20	0xbed28d99	-0.41123655
21	0x3f14b807	0.58093303
22	0x3f5f2d9f	0.8717899
23	0x40097fce	2.1484256
24	0x400d6bca	2.209704
25	0x40423c11	3.0349162
26	0x3eed95ed	0.46403447
27	0x3cfa29db	0.030537536
28	0x3ff01196	1.8755367
29	0xbff1bd67	-1.8885926
30	0xbfab87ae	-1.3400781
31	0xbfad0193	-1.3516105
32	0xbf858150	-1.0430088
33	0x4035f902	2.8433232
34	0x3f9df881	1.2341462
35	0xbfd00a76	-1.6253192
36	0xbe1a9c94	-0.15098792
37	0xc0581e2a	-3.376841
38	0xbe929adb	-0.2863377
39	0x3c80b21d	0.015709931
40	0xbed7438b	-0.4204372
41	0xbf7cfecc	-0.9882629
42	0xbf87bfe6	-1.0605438
43	0xbeb25711	-0.3483205
44	0xc0524a4e	-3.2857852
45	0x40bacdcc	5.8376217
46	0xbd9bcac3	-0.07607033
47	0xbeac2407	-0.33621237
48	0xbf5a8b70	-0.85369015
49	0x3f53a297	0.8266997
50	0xbeac2a24	-0.336259
51	0x3fdafb48	1.7107935
52	0xc081a453	-4.051309
53	0x4026411f	2.5977247
54	0x3fcfd747	1.6237572
55	0xbe7801a6	-0.24219379
56	0x403099f8	2.7593975
57	0xbf428a10	-0.75991917
58	0x3f83a87a	1.028579
59	0xbf177967	-0.5916962
60	0x3ee93316	0.45546788
61	0xbf0886a8	-0.5333047
62	0x407f562d	3.9896348
63	0x3f427db3	0.7597305
64	0x3e8e74b2	0.27823406
65	0x3eb3d4b8	0.3512323
66	0xbf90c898	-1.1311216
67	0xbe8dd165	-0.27698818
68	0x3f9a2e7e	1.2045438
69	0x3fff55cc	1.9948058
70	0xc022483c	-2.5356588
71	0xbface2d9	-1.3506728
72	0xbfea6b1d	-1.8313938
73	0xbd974eeb	-0.07388099
74	0x3f85f170	1.0464306
75	0xbedea826	-0.43487662
76	0x3f56b80d	0.8387459
77	0x3f222899	0.633432
78	0x40574baa	3.3639932
79	0x401f654b	2.4905574
80	0xbea8553a	-0.32877523
81	0xbfe1e5c0	-1.7648239
82	0x4088d531	4.2760243
83	0x3e6e56ad	0.23275252
84	0x3e20ae7d	0.15691562
85	0x3f70c34b	0.94047993
86	0x3fa5bf73	1.2949051
87	0x4033e959	2.8111174
88	0x4039873b	2.8988788
89	0xbe958042	-0.29199415
90	0x40ca1aa7	6.3157535
91	0x3eb49f62	0.3527785
92	0x4062a931	3.5415766
93	0x3f0b6b3e	0.54460514
94	0xbfb62c9b	-1.4232363
95	0x40ac1d95	5.378611
96	0x408ff168	4.4982185
97	0x3fee7320	1.8628883
98	0x409066cc	4.5125484
99	0xbf38d1de	-0.7219523
100	0xc0168f91	-2.3525126
101	0xbf9660b9	-1.1748267
102	0xbed7340b	-0.42031893
103	0xbeab36cb	-0.3344024
104	0xbf9699d8	-1.1765699
105	0x3fd7677c	1.6828456
106	0x3f532299	0.82474667
107	0xbf8821c6	-1.0635307
108	0xbffa6a5d	-1.956371
109	0x4030f876	2.7651649
110	0xbd2b3167	-0.04179516
111	0xbfe2b774	-1.7712235
112	0xbfe99190	-1.8247547
113	0x3fdf5ae7	1.7449616
114	0xbf838118	-1.0273771
115	0x402d0416	2.7033744
116	0x40c36592	6.1061487
117	0x3f8c36b2	1.0954192
118	0x404413bb	3.0637043
119	0xbfee991d	-1.8640476
120	0x3fd02d8b	1.6263899
121	0x40c41027	6.1269717
122	0x3f6cca5c	0.92496276
123	0x3fb0e39a	1.3819458
124	0xbf9704cd	-1.179834
125	0x3fd056c3	1.6276478
126	0x402d9416	2.7121634
127	0x4056421c	3.347785
128	0x3f6b301c	0.91870284
129	0x4019a0e8	2.400446
130	0x408c9e3a	4.394315
131	0x40473361	3.112511
132	0xbf17f654	-0.5936024
133	0xbfee67f3	-1.8625473
134	0x4043f3ec	3.0617628
135	0x4079bb79	3.9020674
136	0xbd8cf0cd	-0.068818666
137	0x3f3482ef	0.7051229
138	0x40bd8d20	5.923477
139	0xbefa7c81	-0.48923114
140	0x3fbcfcdc	1.4764667
141	0x3f97cbef	1.185911
142	0xbec118a9	-0.37714127
143	0xbeef917e	-0.4679069
144	0x405c75d6	3.4446921
145	0x3f639cd2	0.88911164
146	0x400edd4d	2.2322571
147	0x3fbeb9c2	1.4900439
148	0x3e3c50f6	0.18390259
149	0x4099cfe8	4.806629
150	0x3f9405c1	1.1564256
151	0xc09687db	-4.704084
152	0x3f2ee1cc	0.6831329
153	0xbfe38031	-1.7773496
154	0x3f2d6f75	0.67748195
155	0xbf637f16	-0.8886579
156	0xbead9495	-0.33902422
157	0xbfa9b0b1	-1.3257047
158	0x4000795c	2.0074072
159	0x406483e1	3.5705492
160	0xbe7b22ce	-0.24524996
161	0x3f2f2e06	0.684296
162	0xc00b6f9e	-2.1786876
163	0x40d93068	6.787159
164	0xc0874941	-4.227692
165	0xbe38960c	-0.18025988
166	0xbe108be7	-0.14115869
167	0x409ab616	4.8347273
168	0xbed9a71d	-0.4251031
169	0x3b221dac	0.0024736924
170	0x3ffb74b8	1.9644995
171	0x3d83e854	0.064407974
172	0x40347ab3	2.819989
173	0x403be46d	2.935817
174	0x406feff1	3.7490199
175	0x3f96a92a	1.1770375
176	0x3e8137b4	0.2523781
177	0x3f862dfd	1.0482785
178	0x3f159c6c	0.58441806
179	0x3f768141	0.96290976
180	0xbe3cdf9d	-0.18444677
181	0xbf17017a	-0.5898663
182	0x3fdaadb9	1.7084266
183	0xbfcbb93f	-1.5915908
184	0xbf1ffed1	-0.62498194
185	0x3e76393a	0.24045268
186	0xbf849888	-1.0359049
187	0xc00c2a47	-2.1900804
188	0x402c9b3c	2.6969748
189	0xbed11dbf	-0.40843007
190	0xbe44da41	-0.19223882
191	0x3fde6416	1.7374294
192	0xbe3efe33	-0.18651657
193	0x402a9c6b	2.665797
194	0x3f943eff	1.1581725
195	0x3f5e2380	0.8677292
196	0x3f99aa3d	1.2005078
197	0x40003b54	2.003621
198	0x3f49db62	0.78850377
199	0xbeb028db	-0.3440617
200	0x3e243872	0.16037157
201	0x3f8740a5	1.0566603
202	0x4044ab4d	3.0729554
203	0x3f924bda	1.1429398
204	0x3f8ea3a6	1.1143692
205	0xbeab934e	-0.33510822
206	0x402b2924	2.674386
207	0xbfbccc06	-1.4749763
208	0xbe3a58db	-0.18197958
209	0x400d0420	2.2033768
210	0xbec6cb11	-0.38826802
211	0xbdf1d960	-0.11809039
212	0x3fbdd314	1.4830041
213	0xc042ba1a	-3.0426087
214	0xbf87252f	-1.0558223
215	0x40581baf	3.3766897
216	0x3f9dade2	1.231869
217	0xbeb54dd5	-0.35410944
218	0xbf0ee230	-0.55813885
219	0x3f0ad4fc	0.5423124
220	0x3f006eaf	0.5016889
221	0x4012831b	2.289252
222	0xbf8b4452	-1.0880225
223	0x3ff60c47	1.9222497
224	0x3f04cbec	0.5187366
225	0x40811b13	4.034555
226	0xbdddfe91	-0.1083957
227	0x3f8ceeab	1.1010336
228	0xbefa7be2	-0.4892264
229	0x40031fd1	2.048817
230	0x3fc71c47	1.5555505
231	0xbd922c3d	-0.07137344
232	0x3e1bfea6	0.1523386
233	0xbf24ca98	-0.64371634
234	0xbf219b74	-0.6312783
235	0x405757cf	3.3647344
236	0x3fdacfdc	1.7094684
237	0x3eab2014	0.3342291
238	0x405d9afb	3.4625843
239	0x4058f40c	3.3898954
240	0xbff2fcb4	-1.8983369
241	0x3f01eec0	0.5075493
242	0xc0033261	-2.04995
243	0xbf14a6b0	-0.58066845
244	0xc082ef2a	-4.091695
245	0x3dd53cb0	0.10411966
246	0xbe97e650	-0.29667902
247	0x3ea27ac2	0.31734282
248	0xbfeb68a9	-1.8391315
249	0xbf09f2f0	-0.5388632
250	0x3f4e2a0e	0.8053292
251	0xbf66fdec	-0.90231204
252	0x3fb8f649	1.445016
253	0x403836ac	2.878337
254	0x3e9e69bf	0.30940053
255	0x40a47288	5.138981

l1.bias f4 [8]
0	0x3f8fa148	1.1221094
1	0x3fa30915	1.2737147
2	0x3f98dd73	1.1942581
3	0x3fb90901	1.4455873
4	0x3f101db1	0.56295305
5	0x3f6b9300	0.9202118
6	0x3f8dfcfc	1.109283
7	0x3ee8f370	0.45498228

l2.weight f4 [8, 8]
0	0x3cf48220	0.029847205
1	0xbdabeeb8	-0.08395141
2	0xbea37e32	-0.31932217
3	0xbe4c9e26	-0.19982204
4	0xbe5f090f	-0.217808
5	0xbdd9d122	-0.10635592
6	0xbd9b8780	-0.07594204
7	0xbe9e1088	-0.30871987
8	0x401c5145	2.4424603
9	0x407f0991	3.984959
10	0x3f8891c9	1.066949
11	0xbf23154f	-0.6370439
12	0xc048f2e2	-3.1398244
13	0x403594de	2.8372111
14	0xbfd10937	-1.6330937
15	0xbe705db2	-0.23473242
16	0xbf808339	-1.0040046
17	0xbe1f022c	-0.15528172
18	0x4004627c	2.068511
19	0x406322e6	3.549005
20	0xbf5b3489	-0.8562704
21	0xbfa98c0b	-1.3245863
22	0x405922cb	3.3927486
23	0xc0827e1b	-4.0778937
24	0x40248379	2.5705245
25	0xbf50b0b7	-0.81519645
26	0x3fd4005e	1.6562612
27	0x3f78d518	0.97200155
28	0x406c3ea4	3.6913233
29	0xbea6a936	-0.32550973
30	0xc00cc628	-2.1995945
31	0x3fdd8b75	1.7308184
32	0xc083d7c0	-4.1200867
33	0x3dc2de65	0.09515075
34	0xbec789d8	-0.38972354
35	0x405fdb6e	3.497768
36	0x401a7c84	2.4138498
37	0x40596637	3.3968637
38	0xbdded7c1	-0.108809955
39	0x3ffb8662	1.9650385
40	0xc003c589	-2.0589316
41	0x400642a5	2.0978177
42	0x3fcb6b50	1.5892124
43	0xc0055ad0	-2.0836678
44	0x3ffb3d71	1.9628125
45	0xc007031a	-2.1095643
46	0x40108ca2	2.2585835
47	0x3fbaf73e	1.4606702
48	0x4045eb80	3.0924988
49	0xbfc95ca5	-1.5731398
50	0xbfcc809b	-1.5976747
51	0xbf0a2574	-0.539634
52	0xbf086ea3	-0.5329382
53	0xbe991e95	-0.29906145
54	0x4079820e	3.898563
55	0x401f915f	2.4932477
56	0x3f289090	0.65845585
57	0xbe94ff97	-0.2910125
58	0x4009a36a	2.150599
59	0x3fff0235	1.9922549
60	0x3ff29155	1.8950602
61	0xc074f1fc	-3.8272696
62	0xbf70a11c	-0.93995833
63	0x3f812f97	1.0092648

l2.bias f4 [8]
0	0xbe331bbe	-0.17491052
1	0x3fb1d612	1.3893454
2	0x3fc803f7	1.562621
3	0xbeb359f6	-0.35029572
4	0xbf82d6d1	-1.0221807
5	0xbf1a17c3	-0.6019251
6	0x3e4a1164	0.19733196
7	0xbccd3e2e	-0.025054064

l3.weight f4 [300, 8]
0	0x3e0008fc	0.12503427
1	0x3bc94da7	0.00614329
2	0xbfbf3c3d	-1.4940258
3	0xbfffd0b7	-1.998557
4	0x3f68f823	0.91003627
5	0xc0f6f653	-7.717569
6	0xc0bf0986	-5.9699125
7	0xc04f2cdc	-3.237113
8	0xbc4e0500	-0.012574434
9	0xbec8bfc3	-0.39208803
10	0xc0350a48	-2.8287525
11	0x3d25cade	0.040476672
12	0xbf790af2	-0.97282326
13	0xc14ba293	-12.727191
14	0x3ea18b4c	0.31551588
15	0xbfaadec6	-1.3349235
16	0xbe16b89e	-0.14718863
17	0x3e95c126	0.29248923
18	0xbe132a32	-0.14371565
19	0x3eb783e5	0.35842815
20	0xbf852522	-1.0401957
21	0xc14cac76	-12.792105
22	0xbff9bc3b	-1.9510568
23	0xbe978516	-0.29593724
24	0x3dfce93c	0.123491734
25	0xc06912d5	-3.6417744
26	0xc0f0b6ac	-7.522299
27	0x3f4c7204	0.79861474
28	0xbf1e339d	-0.61797506
29	0xbffa9e48	-1.9579554
30	0xbf1a7874	-0.60340047
31	0x3ef0004f	0.46875235
32	0xbdec7b1a	-0.11546917
33	0xc00d3303	-2.2062385
34	0xbedcca22	-0.43122965
35	0x3f0bb5b6	0.54574144
36	0xbf03c577	-0.5147318
37	0xc07c97c8	-3.946764
38	0xc12bc5c4	-10.735783
39	0x3fcee57c	1.6163783
40	0xbeb1bef8	-0.3471601
41	0xc0728415	-3.7893116
42	0xbf72b474	-0.948066
43	0xc11dbbe4	-9.858372
44	0xc02e9b08	-2.7282124
45	0x3f160747	0.58604854
46	0x3efe978a	0.4972499
47	0xbfbf025f	-1.4922599
48	0xbe7d7f9c	-0.2475571
49	0xbd67cb12	-0.056590147
50	0xc0e53a7d	-7.1633897
51	0x3e3d8af4	0.18510038
52	0xc13c3bbf	-11.764586
53	0xc0571892	-3.3608747
54	0xbe834b3e	-0.25643343
55	0x3f7142f8	0.9424281
56	0x3ea25d2f	0.31711718
57	0x3f689ddc	0.90865874
58	0xc1052691	-8.321916
59	0x3e7856ab	0.24251811
60	0xc01aa6e7	-2.416437
61	0xc13bfac1	-11.748719
62	0xbfa1f350	-1.2652378
63	0xc10e59c0	-8.896912
64	0xbe457727	-0.19283734
65	0xbd61f5d1	-0.05516607
66	0xbe6bdd9c	-0.23033756
67	0xc1301f1e	-11.007597
68	0xc114ce87	-9.300422
69	0xbf854cbf	-1.0414046
70	0x3f61f7dd	0.88268834
71	0xc0019eda	-2.0253205
72	0x3c5c8f20	0.013461858
73	0xbf8fda24	-1.1238446
74	0xbf092639	-0.5357395
75	0xbf0d39f1	-0.55166537
76	0xc06b94fd	-3.6809685
77	0x3f3b262b	0.73105115
78	0xbec8ff87	-0.39257452
79	0xbded230f	-0.115789525
80	0x3b817fc0	0.0039519966
81	0xbd241efe	-0.04006862
82	0xc152bcce	-13.171095
83	0xbf9a022a	-1.203191
84	0xc07a86dc	-3.9144812
85	0xc018b083	-2.3857734
86	0x3f73d581	0.95247656
87	0xc0ae7924	-5.4522877
88	0x3e5eca1e	0.21756789
89	0xc044d74c	-3.0756407
90	0x3fd8befd	1.6933285
91	0xc10b9762	-8.724459
92	0xc01b2d67	-2.4246461
93	0xbfa83193	-1.3140129
94	0x3f0c7cc9	0.5487791
95	0xc11ea461	-9.915132
96	0xbcc150e0	-0.023598135
97	0xc05bc919	-3.434149
98	0xc1582d5f	-13.511077
99	0x3ee18b09	0.44051388
100	0xbf85bb67	-1.0447816
101	0xbf0ff12e	-0.56227386
102	0x3b3122ef	0.0027028879
103	0x3e152530	0.14564967
104	0x3e1f0266	0.15528259
105	0x3d163930	0.036675632
106	0x3ea4c06f	0.32178065
107	0xbf2c17ac	-0.6722362
108	0xc00051fe	-2.0050044
109	0xbd829ef2	-0.06377973
110	0xc0517830	-3.2729607
111	0x3e2d7660	0.16939688
112	0xbe97e66d	-0.29667988
113	0xbf664657	-0.8995108
114	0xc122df84	-10.179569
115	0xbeaad09f	-0.3336229
116	0x3e87afbd	0.26501265
117	0xc0cb1320	-6.3460846
118	0x3ec99345	0.3937017
119	0xc04f1f84	-3.2362986
120	0xbc0b9e00	-0.008521557
121	0xbe352d29	-0.17693008
122	0xbe913e15	-0.28367677
123	0xc0ce3c3e	-6.444854
124	0x3eb862f2	0.3601299
125	0xc08e927a	-4.4553804
126	0xbe45a209	-0.19300093
127	0xc0f1e0d7	-7.5586963
128	0xbdcd8928	-0.10035926
129	0xc11e7bab	-9.905192
130	0xc1118ba7	-9.096595
131	0x3e92c347	0.2866461
132	0xc04eb33e	-3.22969
133	0xbf5fd74c	-0.8743789
134	0x3f2bef74	0.6716225
135	0x3e4f6a6c	0.2025544
136	0x3eb45451	0.35220578
137	0xbed622d9	-0.41823462
138	0xbfd86ab0	-1.6907558
139	0x3eb3ab8e	0.35091823
140	0xc082a56f	-4.0826945
141	0xc14bdbd5	-12.74117
142	0x3ee5935c	0.4483899
143	0xc0ede178	-7.433773
144	0x3eac20b5	0.33618703
145	0xc0f5041c	-7.6567516
146	0x3f237b3a	0.63859904
147	0xc1008d91	-8.034562
148	0xbfa55245	-1.2915732
149	0xbfaa6d6b	-1.3314642
150	0xbe9934b8	-0.29923034
151	0x3f664d7c	0.8996198
152	0x3e2b1b86	0.16709718
153	0xbe3a7a8e	-0.18210813
154	0xc11d2460	-9.821381
155	0x3f3c9f89	0.7368093
156	0xbf8f62aa	-1.1201985
157	0xc16286ac	-14.157879
158	0xbe5227dd	-0.20523019
159	0xc01bffa8	-2.437479
160	0x3e913b5b	0.28365597
161	0xbf4624e9	-0.7740007
162	0xbf601dc7	-0.87545437
163	0xbddf8ab1	-0.10915125
164	0xc0862608	-4.1921425
165	0xc14b974d	-12.724439
166	0xbf6a97e9	-0.91638047
167	0x3fb5d6e5	1.4206206
168	0xbdccb31c	-0.099951
169	0xbf68b5fb	-0.9090268
170	0xbd9a6d03	-0.075403236
171	0xbf735524	-0.9505179
172	0xbbb19c5f	-0.005420252
173	0xbf926fd0	-1.1440372
174	0x3e857494	0.26065505
175	0xc116b49f	-9.419097
176	0xbdd75446	-0.10514121
177	0x3dabaa7f	0.08382129
178	0xbfa5f67f	-1.296585
179	0xbf108d80	-0.5646591
180	0xc0b34965	-5.6027093
181	0x3f1dc4e7	0.61628574
182	0xbf8820df	-1.0635031
183	0x3e5c6f0f	0.2152674
184	0x3e4b2b3a	0.19840708
185	0xc04ac50d	-3.168277
186	0xc0b5080f	-5.6572337
187	0x3f3aedb8	0.7301898
188	0xbe012117	-0.12610279
189	0xc154be06	-13.296392
190	0x3e3f8697	0.18703686
191	0xbfff6590	-1.995287
192	0xbe4f8ef1	-0.20269372
193	0x3ebb244c	0.3655113
194	0xc016840b	-2.3518093
195	0xbd05fb9a	-0.03271065
196	0xbeee160f	-0.46501204
197	0xc00c1e25	-2.1893399
198	0xc1132d8b	-9.198619
199	0x3e968b96	0.2940337
200	0x3e5917fa	0.21200553
201	0x3d6c90f4	0.057755426
202	0xbebc639a	-0.3679474
203	0xbf15ebbf	-0.58562845
204	0xc147b460	-12.481537
205	0xbd729bb3	-0.059230518
206	0xbf1bcbed	-0.6085804
207	0x3dc89b63	0.09795263
208	0xbc9a1eb0	-0.018813461
209	0xbf8cb1f4	-1.0991807
210	0x3d6c416d	0.057679582
211	0xbdbf9134	-0.09353867
212	0xc013a741	-2.3070834
213	0xbf1170d4	-0.5681279
214	0xc132bbd1	-11.170854
215	0x3f48559e	0.7825564
216	0xbe533436	-0.20625386
217	0xc083d395	-4.119578
218	0x3f2c22b9	0.6724048
219	0x3e43c473	0.19117908
220	0xbe64ca10	-0.22342706
221	0xc12d8f6c	-10.847515
222	0xc110a9b5	-9.041432
223	0x3f972cb8	1.1810522
224	0x3d5b65f8	0.05356404
225	0xbdde2ca7	-0.108483605
226	0xbed67912	-0.41889244
227	0xbf927a06	-1.1443489
228	0x3ea1499f	0.3150148
229	0xc1488883	-12.533328
230	0xbe2cb605	-0.1686631
231	0xc1683982	-14.51404
232	0x3cdff670	0.02733919
233	0xc01b0af3	-2.4225433
234	0x3fabb364	1.3414121
235	0xc0f25219	-7.5725217
236	0x3eb0b06d	0.34509602
237	0xc0dba86a	-6.8643084
238	0xbf59dea0	-0.85105324
239	0xc0eccead	-7.400229
240	0x3e4f498a	0.20242897
241	0xbf9afac4	-1.2107778
242	0xc073b929	-3.8081763
243	0xc08bfb09	-4.374394
244	0xc0ad8725	-5.422747
245	0xc0a938ac	-5.288168
246	0x3fe6163a	1.7975533
247	0xc0c409e2	-6.1262064
248	0xbcbff480	-0.023432016
249	0x3d51a4b6	0.05118247
250	0x3f1d70b6	0.6150011
251	0xc0332a75	-2.7994664
252	0xbf67c78d	-0.90538865
253	0xc0b1b63e	-5.5534964
254	0xbc11c2a6	-0.008896505
255	0xbffc6e9e	-1.9721258

l3.bias f4 [300]
0	0xbf897476	-1.0738666
1	0xc0aacc3b	-5.3374305
2	0xbe697c15	-0.2280124
3	0xbf905efc	-1.1278987
4	0x3f968936	1.1760623
5	0x3f1dbcda	0.6161629
6	0xc0a3328d	-5.0999207
7	0xc01a2c49	-2.408953
8	0xbf9ca028	-1.2236376
9	0x3fedce98	1.8578672
10	0x3e8bb9fa	0.27290326
11	0xbf81679d	-1.0109745
12	0xc07d9c09	-3.9626486
13	0xbe4a737a	-0.19770613
14	0xc038ee95	-2.889562
15	0x3d089456	0.03334459
16	0xc02c4959	-2.6919768
17	0xbfa8ca2e	-1.31867
18	0xbfa7837d	-1.3087002
19	0xc04f4784	-3.23874
20	0xbfefce13	-1.8734764
21	0xbe0363d5	-0.12831052
22	0xbeb4b733	-0.3529602
23	0xbff22a4c	-1.8919158
24	0xc063d192	-3.5596662
25	0xbf52247c	-0.8208692
26	0xc0cb98db	-6.362409
27	0xc024034a	-2.5627007
28	0xbdb8640c	-0.090034574
29	0xbfa92c65	-1.3216673
30	0x3f93fd4b	1.1561674
31	0x401c88cc	2.4458494
32	0x3f1b7e93	0.6074001
33	0xbffceaf6	-1.9759204
34	0xbe64d8cc	-0.22348326
35	0xc0b85a6e	-5.761039
36	0xbfe18e3a	-1.7621529
37	0xbe2f68da	-0.17129841
38	0xbfb629c7	-1.42315
39	0x3fae83c2	1.3633959
40	0x3cd90c5a	0.026495147
41	0xbfd8446f	-1.6895884
42	0xc0bab7ad	-5.8349214
43	0xc003f717	-2.0619562
44	0x3f49b791	0.78795725
45	0x3db48251	0.088139184
46	0xbff28c00	-1.8948975
47	0xbfa2d1ce	-1.2720277
48	0xc0218d92	-2.5242658
49	0xbf99b714	-1.2008996
50	0xc03dd9dd	-2.9664223
51	0xc0c734e4	-6.2252064
52	0x3f05250c	0.52009654
53	0xbfd8f9fe	-1.6951292
54	0xbe8cd66a	-0.27507335
55	0xc09259dc	-4.573469
56	0xbff962d9	-1.9483291
57	0xbfdcd7f9	-1.725341
58	0xbe03672b	-0.12832324
59	0xc0670a16	-3.6099906
60	0xc09be0e2	-4.8712015
61	0x3f2e35d9	0.68050915
62	0xbf7d9bb8	-0.9906573
63	0xc045e0a6	-3.0918365
64	0x3e8147a2	0.25249964
65	0xba8448fe	-0.0010092554
66	0xbee49c45	-0.44650474
67	0xc0541796	-3.3139396
68	0xbf3f24c5	-0.7466548
69	0x3f79aeeb	0.9753253
70	0xc05e29ac	-3.4712934
71	0x3e787c94	0.24266273
72	0x3e838bcf	0.25692603
73	0xbff7bd4e	-1.9354646
74	0x3e52552e	0.20540306
75	0x3e44281d	0.19155927
76	0x3f041d07	0.5160679
77	0xbfd7941e	-1.6842077
78	0xbe9df4c2	-0.30850798
79	0xbf18196c	-0.5941379
80	0xbd48f6f5	-0.04906364
81	0xbea169e4	-0.315261
82	0xbe31c0f8	-0.17358768
83	0xbf52f9b9	-0.82412297
84	0xbfa22fe9	-1.2670871
85	0xc08f4970	-4.4777145
86	0xc0842edc	-4.13072
87	0x3eb20010	0.34765673
88	0xbfefcd84	-1.8734593
89	0xc00e5951	-2.2242014
90	0xc098fa80	-4.7805786
91	0x3e067bf4	0.13133222
92	0xc0ee1925	-7.4405694
93	0xc0b684ac	-5.7036953
94	0x3fd00cfa	1.625396
95	0xbf8ea038	-1.1142645
96	0x3f8cf5d3	1.101252
97	0xc007591b	-2.1148136
98	0xc03ca7cb	-2.9477413
99	0xc05cb4d5	-3.448537
100	0xbfeed4ce	-1.8658693
101	0xbee28687	-0.4424326
102	0xbf97244b	-1.1807951
103	0xbef17640	-0.4716053
104	0xbec84ab8	-0.39119506
105	0xc05f9c4e	-3.493915
106	0x3f05e054	0.5229542
107	0xc08ff199	-4.498242
108	0xc00e5860	-2.224144
109	0xc043fb7d	-3.0622246
110	0xc0554567	-3.332361
111	0x3eee7842	0.46576124
112	0xc002d003	-2.043946
113	0xbf120d52	-0.57051575
114	0xbf963a21	-1.173649
115	0xbe0f0fda	-0.1397089
116	0xc0097bed	-2.1481888
117	0xbfb007c7	-1.3752373
118	0xbf128c13	-0.57244986
119	0xbf9a8fd0	-1.2075138
120	0xbd3c6561	-0.04599512
121	0xbf32e248	-0.6987653
122	0xc0ab2436	-5.3481703
123	0x3f00a580	0.5025253
124	0xbeb7bba5	-0.3588535
125	0x3e4b41fc	0.1984939
126	0xbfd5af8d	-1.6694199
127	0xbf6edfcc	-0.93310237
128	0xbf848101	-1.0351869
129	0xc0753476	-3.831327
130	0xc0372801	-2.8618166
131	0xbf8f5e74	-1.12007
132	0xbf9f958d	-1.2467514
133	0xc0529d0c	-3.2908354
134	0xbf73619c	-0.95070815
135	0xbfd2176f	-1.6413401
136	0x3caf5966	0.021404933
137	0x3e5c15c5	0.2149268
138	0x3ea6e188	0.32593942
139	0xc04f8c11	-3.242924
140	0xbdf2cc45	-0.118553676
141	0xbfaf5840	-1.3698807
142	0xc0327165	-2.788171
143	0x3ebf6b22	0.37386423
144	0x3f759c0c	0.95941234
145	0xbf58b3df	-0.8464946
146	0xbfba5a74	-1.4558854
147	0x3e11938d	0.14216442
148	0xc0481a73	-3.1266143
149	0xbeb782d8	-0.35842013
150	0x3dac8a99	0.08424873
151	0x3dd29e50	0.10284102
152	0xc088a5af	-4.270225
153	0x3f8dba7b	1.1072534
154	0xc064054b	-3.562823
155	0x3e8eefc3	0.279173
156	0xbfc51fbd	-1.5400311
157	0xc084ac76	-4.1460524
158	0xbfad352b	-1.353185
159	0xbdde139f	-0.10843586
160	0xbeb669e4	-0.35627663
161	0xbd32c8ce	-0.043648534
162	0xbff07afd	-1.8787533
163	0xbf3431d9	-0.7038856
164	0xbfcf5e77	-1.6200703
165	0x3f8f91ab	1.1216329
166	0x3e8a7f6c	0.2705034
167	0xbff7e2db	-1.9366106
168	0xbfc87b4a	-1.5662625
169	0xbea7fb5f	-0.32808968
170	0x3f073f9b	0.5283143
171	0xc07fcb60	-3.996788
172	0xc0a7b100	-5.2403564
173	0xbe6c6c35	-0.23088153
174	0xbf500b56	-0.812673
175	0xc01381de	-2.3048015
176	0x3f86a08a	1.0517743
177	0x3e1adc30	0.15123057
178	0xc0717a63	-3.773095
179	0xc0fb073a	-7.844632
180	0xbeb07fbb	-0.3447245
181	0xbfb95410	-1.4478779
182	0xc0a042b1	-5.008141
183	0xbf87bb4a	-1.0604031
184	0xc0b110e6	-5.533313
185	0xbffdc427	-1.9825486
186	0xc010c1d4	-2.2618303
187	0xbcb56175	-0.022141198
188	0xc06578ef	-3.5855062
189	0xbfe56fb2	-1.7924712
190	0xbf0356d8	-0.5130439
191	0x3dffb92f	0.12486493
192	0xc04d4996	-3.2076163
193	0xbf5f45e5	-0.87216026
194	0xbf1e577f	-0.6185226
195	0xbc2319ae	-0.009954853
196	0xc08d7a92	-4.421212
197	0xc0a7dcd3	-5.245706
198	0xc050da50	-3.2633247
199	0xc03400fc	-2.81256
200	0xbf8351d4	-1.0259347
201	0xbf8db602	-1.1071169
202	0xbf34992d	-0.7054623
203	0xc0909cc1	-4.519135
204	0xbfe5b490	-1.7945728
205	0xc05737d3	-3.3627822
206	0xbdb5b2d4	-0.088719994
207	0xbeba0a1e	-0.36335844
208	0xbf7be004	-0.98388696
209	0xc03d5e92	-2.958897
210	0xc07bd740	-3.9350128
211	0xc011b259	-2.2765105
212	0x3f7c643d	0.9859045
213	0xc05785a4	-3.3675318
214	0xc0929563	-4.5807357
215	0xc013b16f	-2.3077047
216	0xc04f7d07	-3.242006
217	0xc09f63a2	-4.980912
218	0xc0a309d9	-5.094952
219	0xbff2f2b1	-1.8980314
220	0xbf8fc930	-1.1233273
221	0xc07dd2ed	-3.965999
222	0xc01fcb96	-2.496801
223	0xbf96d142	-1.178261
224	0xc0910aef	-4.5325847
225	0x3e2c0932	0.16800383
226	0xc0264ae4	-2.598321
227	0xc06c76e4	-3.6947565
228	0xc05be67d	-3.435943
229	0xc0b23958	-5.5695
230	0xbfc0e3df	-1.5069541
231	0x3e09c444	0.13453776
232	0xc06a53c7	-3.6613634
233	0xc0436b7a	-3.0534348
234	0xbff3ad40	-1.9037247
235	0x3f0a225c	0.5395868
236	0xbfa81fbf	-1.3134688
237	0xc0524c89	-3.2859213
238	0xbfb42db0	-1.4076443
239	0xc098df50	-4.77726
240	0xc020166b	-2.5013683
241	0xbfd012db	-1.6255754
242	0xc08521d8	-4.1603813
243	0x3e258a8a	0.1616613
244	0x3f00a848	0.50256777
245	0xbf6d95e6	-0.9280685
246	0xbfd7d96a	-1.6863225
247	0xc03d65f7	-2.9593484
248	0xbe6ea123	-0.23303656
249	0x3d181a8d	0.037134696
250	0xbecd82f3	-0.4013897
251	0x3ecb40e2	0.3969794
252	0xc05c4801	-3.4418948
253	0xbfd9b9e0	-1.700985
254	0xbee30d87	-0.44346258
255	0xc0fe449f	-7.9458766
