data.pth (torch, 48855 bytes, 6 tensors)

l1.weight f4 [8, 630]
00000000: 8e74 8d3f a6e5 39bf 7176 2440 89a6 c23f
00000010: 7c6f 05bf 98a7 6b40 1843 bebe fae9 35c0
00000020: fe53 5cbf 166d b03f 0446 a1be 9272 8cbf
00000030: 873c fa3a 23c7 25c0 dcc5 4cbf 14a2 8ebf
00000040: 607d cabf 4267 47bf 59ea 0040 659f 1f40
00000050: a6e3 b73f 0c8c 8b3f 8653 a7be fec7 33bf
00000060: 9988 e4bf 566c d0bf 666f 033e c8f7 bb3f
00000070: 601d e03e 164d 7340 d89a 1540 1d3e 6f40
00000080: f27c 00be 6707 7440 e4b0 023e fd26 4a40
00000090: 0d3b fc3d 8805 fbbf 8db4 893e c9dc 263f
000000a0: 124e c1be 9176 c8bf f13a 123f f7a5 233f
000000b0: 8761 6740 8744 e53f c788 c2be 3ad9 a2bd
000000c0: d4da 3e3e 8a7e c83f 2c28 753d cdea e3be
000000d0: 5edd fd3f 6774 b13f 07c6 353f 2d0a d53c
000000e0: ff35 acbf cca8 08bf 45a2 513f 3a99 dabc
000000f0: 621f b03e 0fd9 8e3f ee3e 9740 3dce 5e3d
00000100: 1384 0d40 071b a43e a2f6 3ac0 a55f af3f
00000110: 9fd8 82bf 12be 4e3f 799c 2440 fcd3 6240
00000120: 177a f93e 3a75 4bbe 0556 1fbe 3477 a2be
00000130: c12a 84bc 8e95 c23e 3afd 2340 8634 9e3f
00000140: 3439 e1be f10c 2a3f 7d31 7440 5830 0340
00000150: b217 1240 f0a6 5740 c5ec f8bd 4f99 c5bf
00000160: 83ec 7fbf f60c cbbf c2f1 a13f 77d5 3abf
00000170: 0da4 5e3d 45c7 febc ec39 323f a3c5 3940
00000180: ad4e c33f 7ecc f2be b924 8f40 6d28 fe3f
00000190: 44f9 ed3f 4816 0fbf c621 e63f a184 2ebe
000001a0: cfbb a7be c79a 86bf bfed 063f 80f7 28be
000001b0: 7505 19c0 18b3 e93d 51bd a63f c956 3d40
000001c0: cdf9 e33f c2ff 583f c01d f8bf e6da 803f
000001d0: 895b c63f 0324 e03f 9462 bebf e3c3 7540
000001e0: 00d0 093f 7793 43bf 3916 0ebf 056c e0be
000001f0: 3b73 debf a155 b9be 476d 07bf d14f 0240
00000200: 6774 7c40 ffb2 943f f0cb 81bf 3637 163d
00000210: b11b a53f eb8b 9740 6d3a cebf 70aa 2e40
00000220: a26d f73e d8e5 10bf 2ce6 6f40 0f62 00bf
00000230: 4f37 3c40 4d91 4e40 c550 ca3e 5145 f03d
00000240: cd71 00bf 5b51 d6bf 0083 c23f 84dc 0240
00000250: 63f8 1f40 6f54 0340 2d81 7d3f 94a9 f33f
00000260: a1f3 213f 5d15 2a40 cda6 8c3e 0706 f83e
00000270: 2c8d f53f e227 0c40 13ef 89be dc74 70bd
00000280: 3431 ae3f 9b45 3a3f 3ee3 ac40 5ce7 d13f
00000290: 9948 72c0 7e15 ff3e 0bd3 b0bd 36d8 4840
000002a0: 4e8e dd3f 32a3 9cbe 839b 34be 5b61 b73f
000002b0: d8a2 6940 6c28 f540 e9cc 18bf 4677 963d
000002c0: ab29 e3bf ebd2 f03f 7885 7cbb 8d87 94bf
000002d0: d6dc 283f ae35 2cc0 fe32 fb3f 7fe5 0640
000002e0: e123 7640 8670 8abe 8222 db3f 2e32 1b40
000002f0: 5771 303f b634 33be ea79 32bf 4b34 853d
00000300: 36c8 fb3f 0bf1 28bf 60f0 23bf 48b7 b13e
00000310: 050d 14bf d7df f73e 439d b8bf ddb2 ccbf
00000320: 4da5 22c0 1085 8fbf c81a 2840 063c 233f
00000330: 4fa3 fc3f cd03 28be b16a fdbe 688d 16bf
00000340: d9c9 e3bf 963d b33f 9b37 03be 1567 e03e
00000350: fd53 933f c103 f8bf 02ea f63f 8c4c 2140
00000360: 38e0 253e d1ce 263f d8e3 5d3f 02ab e43f
00000370: 8f58 d0bd 7c8e 98bf f96b 2fbe 97ae 533f
00000380: c35f 64bf b9ef 753b e631 08bf 9f02 31be
00000390: 43c0 5540 dcc8 2c3f ac00 84be d2e7 03c0
000003a0: 96d2 8dbe d627 293f 1992 2d3f 0ef9 0140
000003b0: 4b84 523e c953 30bf 2329 0240 d797 0140
000003c0: 92c8 293f 88ea 433f 5e15 08be 37e2 283f
000003d0: 0638 983e c110 5f3e 7114 2b40 5a1a 0fc0
000003e0: 72cf 4c40 2be8 f8bd 97dc 293e 8f60 9abf
000003f0: 7b6b c7be ad44 ef40 2fbf 2fbf 52bc 893e
1.1051195 -0.7261604 2.569729 1.5207072 -0.52123237 3.682104 -0.37160563 -2.8424058
-0.8606566 1.378329 -0.3149873 -1.0972464 0.0019091525 -2.5902793 -0.7998941 -1.1143212
-1.5819511 -0.77891934 2.0143034 2.4941037 1.4366348 1.0902114 -0.3268091 -0.7022704
-1.7854186 -1.6283062 0.12835464 1.4684992 0.4377241 3.80158 2.337576 3.738166
-0.12547663 3.8129518 0.12762791 3.1586297 0.123159505 -1.9611063 0.26895562 0.6518064
-0.37754875 -1.5661184 0.5712119 0.6392512 3.6153276 1.7911538 -0.37994978 -0.07951589
0.18638164 1.5663617 0.059852764 -0.44515076 1.9833181 1.3863648 0.7100529 0.026005829
-1.3453978 -0.53382564 0.8188823 -0.026684392 0.34398943 1.1159991 4.726432 0.054395903
2.2111862 0.3205187 -2.9213033 1.3701063 -1.0222358 0.80758774 2.5720503 3.5441885
0.4872596 -0.19868937 -0.15560158 -0.3173157 -0.016133668 0.38004726 2.5623307 1.2359779
-0.43988955 0.66425997 3.8155205 2.0498257 2.2826962 3.369564 -0.12154535 -1.5437411
-0.99970263 -1.586333 1.2651904 -0.7298197 0.05435567 -0.031100878 0.6961963 2.9026878
1.5258385 -0.4742164 4.4732327 1.9856087 1.8591695 -0.55893373 1.7979057 -0.17042781
-0.32760474 -1.0515984 0.5270652 -0.16500664 -2.390958 0.114111125 1.3026525 2.958422
1.7810608 0.84765255 -1.9384079 1.0066803 1.5496684 1.751099 -1.4873834 3.840081
0.5383301 -0.7639689 -0.5550266 -0.43832412 -1.7378916 -0.36198142 -0.5290112 2.0361216
3.9446046 1.1617125 -1.0140362 0.036673747 1.2899076 4.73583 -1.611158 2.7291527
0.4832583 -0.56600714 3.7484236 -0.50149626 2.9408758 3.2276185 0.39514747 0.11731971
-0.50173646 -1.6743578 1.5196228 2.0447092 2.4995353 2.0520284 0.9902523 1.9036126
0.63262373 2.657554 0.2747101 0.48442098 1.9183707 2.1899343 -0.26940212 -0.058705196
1.3608766 0.7276246 5.4027395 1.639873 -3.785681 0.49821085 -0.08634003 3.1381965
1.7309053 -0.30593258 -0.17637448 1.4326586 3.6505642 7.6611843 -0.5968767 0.07346968
-1.7747091 1.8814367 -0.0038531702 -1.1603867 0.6596197 -2.6907763 1.9624937 2.1077573
3.8459399 -0.27038974 1.7119906 2.4249377 0.6892294 -0.17500576 -0.69717276 0.06504115
1.9670475 -0.659928 -0.6403866 0.34710145 -0.57832366 0.48412964 -1.4422992 -1.5992085
-2.5413392 -1.1212482 2.6266346 0.63763463 1.9737338 -0.164077 -0.49495462 -0.5880952
-1.7795974 1.400317 -0.1281418 0.43828645 1.1510006 -1.9376146 1.9290164 2.520297
0.16198814 0.65159327 0.86675787 1.7864687 -0.10173141 -1.1918483 -0.17131032 0.8268828
-0.8920862 0.003752692 -0.5320114 -0.17286156 3.3398597 0.6749399 -0.25781763 -2.0610242
-0.27699727 0.6607641 0.6780105 2.030826 0.20558278 -0.68877846 2.0337608 2.0248926
0.6632167 0.7652974 -0.13289401 0.65970176 0.29730242 0.21783735 2.6731226 -2.2359834
3.2001615 -0.121536575 0.16588055 -1.2060717 -0.3894919 7.4771333 -0.686511 0.2690149

l1.bias f4 [8]
00000000: 1c02 853f 9af2 5f3f e74c 413f 8f49 c03f
00000010: 0145 ea3e 07da 043f 6c87 8b3f 9749 8a3f
1.0391269 0.87479556 0.7550797 1.5022448 0.4575577 0.51895183 1.0900702 1.0803708

l2.weight f4 [8, 8]
00000000: 6913 7f3f 811b f8bf 14a4 ac3f a854 2040
00000010: 5af5 3440 061a 44c0 cafc 2ec0 cc4e 3b3f
00000020: ac23 bd40 3135 9ebe 5faa 1640 b300 b5bf
00000030: 9792 a0bf 62d1 44bf 093b fe3f d410 953f
00000040: 5831 50c0 8de3 fabd 9ab1 1540 3991 3040
00000050: 1b05 3cc0 a2ae 7440 68a4 abbf b148 5b40
00000060: 7d09 a33f f9b2 7ebd efa6 3a40 2488 1b3f
00000070: e653 363d 8d19 433e 85f5 123f c218 12c0
00000080: e20d b9bf 5b1c 27c0 3e54 103f caeb 933f
00000090: 49da e83f e5dc 08c0 0b59 2440 53d4 ae3f
000000a0: 1166 f53e 20cc 8540 e74f 50bf 8c6b 95be
000000b0: e85f 1d40 b991 293f cc6d cbbf b116 ad3f
000000c0: 0c94 c6be 403c debe e3dc 023f d5cc afbf
000000d0: 5ea1 9b3f b336 b63f 4822 203f 5c8e 783f
000000e0: 3828 80bf 8ac7 ba3f 7abd c8bf 2a69 d83f
000000f0: dbc6 cc3f b120 54bf 9fed 8040 3dfc d6bf
0.9963899 -1.9383394 1.3487573 2.505167 2.827475 -3.0640883 -2.734179 0.7316711
5.9106045 -0.30899957 2.3541486 -1.4140838 -1.2544736 -0.7688199 1.9861766 1.164576
-3.2530117 -0.12250433 2.338965 2.7588637 -2.9378116 3.8231587 -1.3409548 3.4263117
1.273727 -0.0621824 2.9164388 0.6075461 0.044513606 0.19052716 0.57405883 -2.282761
-1.4457362 -2.6111057 0.56378543 1.1556332 1.8191615 -2.1384823 2.5679348 1.3658546
0.47929433 4.1811676 -0.8137192 -0.29183614 2.4589787 0.6623798 -1.5892882 1.352255
-0.38784826 -0.43405342 0.51118296 -1.3734385 1.215862 1.4235443 0.6255231 0.97092223
-1.0012274 1.4592144 -1.5682824 1.6907094 1.5998186 -0.82862383 4.0290065 -1.6795727

l2.bias f4 [8]
00000000: 94d1 fc3f 8941 093f 1865 c43c 1f6b bfbd
00000010: 9d89 a2bf fe2e 0dbe fc65 c7be 0590 1d3f
1.9751458 0.53615624 0.023973987 -0.093466036 -1.2698246 -0.13787457 -0.38944995 0.6154788

l3.weight f4 [299, 8]
00000000: 711f db3f 410f 06be 962f f9c0 8a33 8abf
00000010: 4e8b c6c0 519f 83bf fbd7 d9c0 610f dcbf
00000020: 2ffb a83e c5a9 eec0 3dcf 94be 8917 483f
00000030: fdf2 1e3e 0a49 06c0 7b35 f4c0 30cf 52bf
00000040: 6e5b b5bf 0cc3 54c1 4ca5 1fbf 156f cbbf
00000050: 505d 8abf 791b 033e 2822 81bc eb28 5e3e
00000060: f0b4 8cc0 f552 cabe fc0a 3ec1 e8df 30c0
00000070: aa94 29c1 bd5d 6d3f ec33 bac0 3795 583e
00000080: d9b3 23c0 1045 a4c0 8895 7f3f d36d 74c0
00000090: 3037 2dc1 0249 35be c460 f7bf b585 1fbf
000000a0: cde4 b1c0 afe0 173d 2dbd c23f 4e65 ddc0
000000b0: f1b1 9fc0 34d1 c7bf bd63 b9bf baca 5fc0
000000c0: ff51 bc3e 15e3 eebf 7cdd 63c0 a127 55c0
000000d0: 4816 823f 96df 5fbf ddf9 933e d046 0bbf
000000e0: 65b7 f3be bd21 01c1 033c 07c1 2e11 dbc0
000000f0: 9b7b f8bf e46b f83e 4370 4fc0 5b5d f83e
00000100: 017c 9cc0 0654 683d f486 2bc0 a83f 9c3f
00000110: 2441 99c0 3164 75be d600 afbe 8b76 f1c0
00000120: caea 95c0 a066 343e 4f09 1cbb 9824 64c1
00000130: 5f02 1ac1 a9d9 adbe d24a 0bbf 619c 923e
00000140: 87c5 483f 074f 073f 8043 bec0 3d62 b7bf
00000150: 706a afbe dd72 6fbf 96eb d8bf 0b2f 0ac1
00000160: 521a efbe 2dac 1cc0 e81b fa3c bdb1 07bf
00000170: 2474 9f3e 232e fbbe 26c6 3dc1 7614 e8be
00000180: ca78 b23d a37a ebbf e296 2bc0 8c6b 32c1
00000190: e0a1 a3c0 f936 d13e 8573 643f 88f1 fabf
000001a0: 3f3e 043f 23ac a9be 1a0c 643e c65f 79bf
000001b0: 8772 3f3e af0f a5bf 0157 bbbf f1c6 1bc1
000001c0: 4884 30bf a542 f7bd 92aa cfbf 6479 0ec1
000001d0: 0d3e c63f b264 fdbf f560 3b40 f1ca 12c1
000001e0: 15c0 b6bf a304 a13e e7c4 fe3b ab25 463e
000001f0: 1c85 2ec1 cfd6 b6bf 8b60 9dbe c467 9cbf
00000200: 824d cebf f0c7 2ec1 ac26 98bf 7dcf 07c1
00000210: 27d9 66c0 2dd5 e63e 2a67 0840 e525 20c0
00000220: 964e 9c3e ab3a 8dbe 4b70 03c1 f28c 0cc1
00000230: 22d7 39c1 dc4d 52be 50ee b83e 7ff1 d5be
00000240: 41c6 bdc0 a765 04c1 9e3f e8c0 b98f 72c0
00000250: fe8f 853f 587e c6be ee0c bd3f ab37 04bf
00000260: 487f 093f 2cea d0c0 81be 14c1 35e1 09c0
00000270: 31ec ccbf b735 fd3d e49d b5bf 8379 24be
00000280: 4a83 f5c0 ee10 e9bf d905 973e 7ea3 cdc0
00000290: ce29 d1c0 3979 d13e b1d9 b6bf 762f f1bf
000002a0: 87d6 49bf d039 07be c385 3abe 1c53 b5c0
000002b0: ff04 0cbf 7102 18bf 386d 86be e7cd d1be
000002c0: 3b0d 91be 48fc 26be 5cd4 a43e 1f72 fcc0
000002d0: 4359 673d 3c2c c0bf 8fa9 e6be 0300 a4bf
000002e0: 6922 aa3f de1b 21c1 3880 60bf 237e 15c0
000002f0: 9737 9a3e 63cd 81bf 471a 84be 80ad f7bf
00000300: 4ed8 9ec0 fc48 83bf d59b 0cbf c455 0abf
00000310: e044 26bf 2bd0 aac0 06e5 3b40 9313 56bf
00000320: 05ed ac3d 3eac 83be eeac 82be 8b49 3cbf
00000330: f6e9 a33e e61d 1ac0 0687 ebbe 38f8 96bf
00000340: 7b41 33bf 4033 e73e 3393 dfc0 0263 bec0
00000350: b8e4 893f c737 90bf a5d0 423f 84de 45c0
00000360: 12ad d73e 335f f8c0 e56f 5ebf e5b9 863f
00000370: 9faa 15bd f574 a6bf a6cb 0440 bb01 05c0
00000380: a322 1ac0 5a36 803e e39f b43e 87ff fc3d
00000390: f231 08c1 35f8 cdbf a798 3abf c8ae a1bf
000003a0: cba4 8cbf 8dd6 dfbf 84e4 99be cc76 e33f
000003b0: b3d5 17c1 f70f b2bf bd99 a2c0 2f8b 0ebf
000003c0: fd7d 1040 e9aa 33bf bf0c fdbf 385b 69bd
000003d0: 6c93 12c1 bfa7 40c0 94f0 90c0 7efa e8bf
000003e0: 4fb7 323f 14b3 26be 3aa6 14be bdb7 4fbe
000003f0: 75f8 9dc0 8a9b 94bf c464 7fc0 ea4a e1bf
1.711897 -0.13091756 -7.787059 -1.0796978 -6.204505 -1.0282995 -6.807615 -1.7192193
0.33004138 -7.458224 -0.2906436 0.7816091 0.1552238 -2.098208 -7.6315284 -0.82347393
-1.4168527 -13.297619 -0.623616 -1.5893275 -1.0809727 0.12803449 -0.015763357 0.21695296
-4.397087 -0.39516416 -11.877682 -2.7636662 -10.598795 0.9272116 -5.818838 0.21150671
-2.557852 -5.1334305 0.9983754 -3.8192031 -10.8259735 -0.17703632 -1.9326406 -0.62313396
-5.55918 0.03707951 1.5213982 -6.9186163 -4.9904714 -1.5610719 -1.4483563 -3.4967484
0.36781308 -1.866305 -3.5603933 -3.3305438 1.016305 -0.8745054 0.28901568 -0.54404926
-0.47600856 -8.070737 -8.452151 -6.845847 -1.9412721 0.48519814 -3.241227 0.48508725
-4.890137 0.056720756 -2.680112 1.2206926 -4.7892017 -0.23964001 -0.34180325 -7.5457206
-4.684911 0.17617273 -0.002380926 -14.258934 -9.625579 -0.33955124 -0.5441104 0.28634933
0.784264 0.5285496 -5.9457397 -1.4326855 -0.34260893 -0.9353464 -1.6946895 -8.636485
-0.46699768 -2.4480088 0.030530885 -0.5300558 0.31143296 -0.49058637 -11.860876 -0.4532811
0.08714445 -1.8396801 -2.6810842 -11.151257 -5.11351 0.40862253 0.8923877 -1.960496
0.5165748 -0.33139142 0.22270241 -0.97411764 0.18696032 -1.2895411 -1.4635926 -9.73607
-0.68951845 -0.12073258 -1.6223929 -8.904636 1.5487686 -1.9796355 2.9277928 -9.174546
-1.4277369 0.3144885 0.0077749374 0.19350307 -10.907497 -1.4284304 -0.3073772 -1.2219167
-1.6117404 -10.923813 -1.1886802 -8.488156 -3.607004 0.45084515 2.1312966 -2.502313
0.30528706 -0.27583823 -8.214915 -8.78441 -11.615023 -0.20537513 0.36119318 -0.4178581
-5.930451 -8.274817 -7.257766 -3.7900221 1.0434568 -0.38768268 1.4769571 -0.5164744
0.5370984 -6.5285854 -9.29651 -2.1543705 -1.600958 0.12363761 -1.4188809 -0.16061978
-7.6722765 -1.8208292 0.2949665 -6.4262075 -6.536353 0.40912798 -1.4285184 -1.8842609
-0.7884297 -0.13205647 -0.18215089 -5.666395 -0.54695123 -0.59378725 -0.26255202 -0.40977404
-0.28330407 -0.16307175 0.32193267 -7.888931 0.05648161 -1.5013499 -0.45051238 -1.2812504
1.3291751 -10.0693035 -0.87695646 -2.3358238 0.30120537 -1.0140804 -0.25801298 -1.9349823
-4.9639044 -1.0256648 -0.5492528 -0.5403712 -0.64948845 -5.337911 2.9358535 -0.8362362
0.084436454 -0.25717348 -0.2552256 -0.7354972 0.32014436 -2.4080749 -0.46001452 -1.17945
-0.7002179 0.45156288 -6.9867187 -5.949586 1.0772924 -1.1267022 0.76099616 -3.0917063
0.4212423 -7.761621 -0.8688949 1.052548 -0.03653967 -1.3004442 2.0749297 -2.0782306
-2.408364 0.25041467 0.35278234 0.123534255 -8.512194 -1.6091372 -0.7288918 -1.2631464
-1.0987791 -1.7487351 -0.30057156 1.7770629 -9.489673 -1.3911122 -5.081267 -0.5568113
2.2576897 -0.70182663 -1.9769515 -0.05697176 -9.160992 -3.0102384 -4.5293674 -1.8201444
0.69810957 -0.1627925 -0.14516535 -0.20284934 -4.936579 -1.1609967 -3.9905252 -1.7600987

l3.bias f4 [299]
00000000: 82c2 babf cca7 31c0 360d e73d dfd4 873e
00000010: 4596 adbf 1f82 9bbd a3d3 e0c0 c739 00c0
00000020: 5a7a ffbf 76c4 3440 68cd fdbf e8f0 a8c0
00000030: 449e 08c0 5501 ebbd f6ba a0bf 9caa 96be
00000040: 1272 78c0 ce92 07bf 12b7 78c0 e020 35c0
00000050: bac3 34c0 3ef7 debc f118 76bf d211 0bc0
00000060: 4dbe 73bf d896 4ebf dada a4c0 4319 b3bf
00000070: 5495 193e 8706 88c0 68f2 b73f 9a0a 2e3f
00000080: 5a54 66be 7923 21c0 22d5 33bf a09c 9ebf
00000090: 141c 61c0 999f 80bf d691 78be f437 443f
000000a0: 44dd d7bf 342a 85c0 2720 14c0 db2d 32c0
000000b0: 9a31 ac3d 0c22 ad3e c961 f83f b3c6 94bf
000000c0: 26e4 5ac0 d4c4 e93e f4d3 82be 6394 dfbf
000000d0: 7798 85bf 8750 443f a457 fbbd ea8b 09c0
000000e0: 4cba 20c0 2e6a 2ec0 c65c 42bf 1c51 d7bf
000000f0: af63 90c0 86ee 883f 6a3c 8d3f d581 82c0
00000100: 372a 94bf b0ea 46be 8f3f a83e ab84 ecbf
00000110: 636d 5cbb af98 aebf 49c3 8ebf a2ba 173f
00000120: bbf1 0d3f ca52 0dc0 1dd6 5b3e 1e13 b33e
00000130: 4cc9 963c 5fc3 11c0 baed e2bf 2191 30bf
00000140: 9224 8dbe 52df 12bf b8c8 e9be d047 14bf
00000150: 8fcc a6be b587 9cbf df1c 5ac0 8607 00be
00000160: 26d1 2ec0 4162 71c0 0324 1fc0 79d2 dabe
00000170: 6855 7fc0 e026 c4c0 f202 17bf a7d2 55bf
00000180: c8bf 803f a431 b7be 4716 82bf 0931 33c0
00000190: 0124 b2bf 5cf8 14bf 83c6 783f 851e 16bf
000001a0: fcb4 be3e 9a10 6bc0 be8f 0e3f a81f 11c0
000001b0: e1e6 87c0 301b 2ec0 1063 45c0 2a47 96bb
000001c0: 9c30 bfbf 8819 603d 84d9 48bf b0f0 f1be
000001d0: 7df6 c1bf 25b1 ebbf c3c3 73c0 b20f d03f
000001e0: d164 aabe 9475 75bf 5528 18c0 e217 663e
000001f0: 7de6 71c0 de69 43bf 1895 38c0 4fd0 29c0
00000200: a0c6 5ec0 94d6 64c0 8b7d 25c0 9b2f 3f3e
00000210: 84e5 7bc0 c2c9 3ec0 64de 62bf bb62 93be
00000220: 91a2 a0be cf2a e43e 3cca 8fc0 0dea 0bbf
00000230: c7fa 5e3f 6dbc c3be 310b cebf 1343 37be
00000240: 20d9 5d3f f67e 633e ec0e 223f b8c8 ebbf
00000250: ab42 43be 80d2 e33d 48c8 7b3f b194 b0bf
00000260: c0a4 e7be 8a74 87c0 f80f 90be 3ff5 1b3e
00000270: 953b 0bc0 1963 b9c0 22a4 563f b9cb efbf
00000280: 8c56 21be 9f61 70bf 024e 92bf 702d 56c0
00000290: 4355 1f3f 9b7c 44c0 5551 05c0 ac21 aebf
000002a0: eec7 1bc0 f725 f7bc cb4a 50c0 ade8 7abf
000002b0: 9021 2b3f 2d68 c5c0 ec4b debf 88d6 5bbf
000002c0: 3f26 cb3d 44d6 59bf 0f2f 56bf 010c 17bf
000002d0: f7eb a7c0 2e53 5bbf 7e42 39c0 0a3a 75c0
000002e0: fc4f acc0 0b7e f3c0 2daa 1cbf 5ced a0bf
000002f0: cc93 07c0 8da3 4bbf fcbf 14c0 b922 88c0
00000300: a5ca 1f3f 5e6b 2d3e 12ad 38c0 da99 95c0
00000310: 8631 febf 3d49 48bf 51bb 6ac0 06bd 4240
00000320: 1fec b8bf eebe b6be 48cf 16c0 3970 85c0
00000330: 0c47 39bf 5b4e 7e3d a9c4 123e 52bd 89c0
00000340: 563e dcbf 4a89 8bc0 d80a 3fbf 4488 75c0
00000350: 99e0 dcbf 2d24 cabf bfbd cfbe 8564 23c0
00000360: 156e 7ac0 6600 92bf 04e7 7ac0 2390 00c0
00000370: 88e3 85c0 f965 3b3f cb36 60bf 6bf9 46c0
00000380: 7327 233f b6d7 c8be d5ce 58c0 c02e 11c0
00000390: e622 f7c0 4d9c 20c0 9119 a03c ba70 90bb
000003a0: b604 a7bf e608 ebbf bca2 35c0 25c4 2dc0
000003b0: 6a79 3ec0 9685 6cc0 67a3 5ebf 9915 213c
000003c0: b53b c6bf 7ce8 10c0 fa3a 8040 400e a7bf
000003d0: a75b 4ec0 1048 28c0 83b2 ddbc 249f 44c0
000003e0: 4417 c4bf 6b32 c53e 40e2 54be a7a1 a1c0
000003f0: a02d 0fc0 2516 323f 6e71 80c0 7def e9c0
-1.4590609 -2.7758665 0.11281817 0.26529595 -1.3561484 -0.07593178 -7.0258346 -2.0035264
-1.9959214 2.824491 -1.982831 -5.2794075 -2.1346598 -0.114748634 -1.2557056 -0.2942704
-3.8819623 -0.5295838 -3.8861737 -2.8301315 -2.8244462 -0.027217504 -0.9613181 -2.1729627
-0.9521225 -0.8069892 -5.1517153 -1.3992084 0.1499837 -4.250797 1.4370852 0.67984927
-0.22493115 -2.51779 -0.7024709 -1.2391548 -3.5173388 -1.0048705 -0.24274382 0.7664788
-1.68644 -4.1614017 -2.3144624 -2.7840488 0.08407898 0.33815038 1.9404842 -1.1623138
-3.420175 0.4565798 -0.25552332 -1.7467159 -1.0437154 0.76685375 -0.122725755 -2.1491647
-2.5113707 -2.7252307 -0.7592281 -1.6821628 -4.5121684 1.0697792 1.1034062 -4.0783486
-1.1575383 -0.19425464 0.3286099 -1.8477987 -0.0033634536 -1.3640345 -1.1153346 0.59269154
0.55446976 -2.208178 0.21468396 0.34975523 0.018406533 -2.2775495 -1.7728798 -0.6897145
-0.27566963 -0.5737201 -0.4566095 -0.5792208 -0.3257794 -1.2228914 -3.4080122 -0.1250287
-2.7315154 -3.771622 -2.486573 -0.42738703 -3.9895878 -6.1297455 -0.5898887 -0.83524555
1.0058527 -0.3578006 -1.0163049 -2.7998679 -1.3917238 -0.58191466 0.97177905 -0.5864032
0.37247455 -3.6728883 0.55688083 -2.2675571 -4.2469335 -2.7204094 -3.0841713 -0.00458612
-1.493671 0.05471185 -0.784569 -0.47253942 -1.5153347 -1.8413435 -3.8088233 1.625479
-0.33280042 -0.95882535 -2.3774617 0.22470048 -3.779693 -0.76333416 -2.8841 -2.6533391
-3.480873 -3.5755968 -2.5857875 0.18670504 -3.9358835 -2.9810643 -0.8862059 -0.28786263
-0.31374028 0.4456391 -4.493437 -0.5465401 0.87101406 -0.38229695 -1.6097165 -0.1789668
0.8665943 0.222164 0.6330402 -1.842063 -0.190684 0.11124134 0.9835248 -1.3795377
-0.45242882 -4.232976 -0.28137183 0.15230273 -2.1755116 -5.793347 0.83844197 -1.8734046
-0.15755671 -0.9389896 -1.1430056 -3.3465233 0.62239474 -3.0701053 -2.083089 -1.3604026
-2.4340777 -0.03016947 -3.254565 -0.98011285 0.6684809 -6.168967 -1.736692 -0.85874224
0.09919404 -0.8509257 -0.83665556 -0.5900269 -5.2475543 -0.856738 -2.8946834 -3.8316674
-5.3847637 -7.609136 -0.6119717 -1.2572436 -2.1183958 -0.79546434 -2.3242178 -4.2542386
0.62418586 0.16935489 -2.8855634 -4.6750307 -1.9858863 -0.7823675 -3.667683 3.042787
-1.4447058 -0.35692543 -2.3564014 -4.169949 -0.72374034 0.062086444 0.14332832 -4.3043604
-1.7206523 -4.360509 -0.7462592 -3.836442 -1.7256042 -1.579229 -0.40574452 -2.5530102
-3.9129689 -1.1406372 -3.92035 -2.0087974 -4.184025 0.7320247 -0.8758361 -3.1089733
0.6373207 -0.39227074 -3.387624 -2.2684784 -7.72301 -2.5095398 0.019543441 -0.0044079693
-1.3048313 -1.836209 -2.8380575 -2.7150967 -2.9761605 -3.6956534 -0.8696808 0.009831809
-1.5486971 -2.2641897 4.0071993 -1.3051224 -3.224344 -2.6293983 -0.02706266 -3.0722132
-1.53196 0.38515028 -0.20789433 -5.050983 -2.2371597 0.6956504 -4.0138464 -7.3104844
