data.pth (torch, 26455 bytes, 6 tensors)

l1.weight f4 [8, 400]
00000000: 7939 5b3e ceb5 773f f4f8 0a3f 31eb 0340
00000010: 8334 863e 43dd 0340 fbf0 133f b885 45be
00000020: 237a 97bf 59b6 ac3f 7fd5 ad3e caa5 cf3f
00000030: 7891 0fc0 118c 253e f126 953f ccee ca3f
00000040: 97ec 0e40 8c95 0440 9107 97bf 3392 2fbe
00000050: 5367 873f 7b1d 2e40 152e d03e 1343 3c40
00000060: 949f f5bf 9fa2 c53e 365e d53f 09b2 ed3f
00000070: 5020 1e3f 8243 873e 0a71 ab3e 4d67 0040
00000080: b36d c6bf e958 e63f 490f 0240 7e99 72bf
00000090: abb5 bc3d a47f 13be 3c81 503f 3b02 e93f
000000a0: d512 37bf e249 8d3e c631 edbf 2bd2 603f
000000b0: 75d7 78bf db87 aa3f b02b 1abf 0e37 283e
000000c0: 32fc 1ac0 5968 803f 5ca1 4e40 8be1 0440
000000d0: 2b59 493f 695a 94be 4684 b0bf 3d8e e73f
000000e0: 62ef 86bc 2722 34be 9d7a e33e 2b26 34bf
000000f0: 28c8 a93f eaf9 03be 84c7 f0bf 7406 0340
00000100: 1edf 4a3d f2fa 233f 8468 a6bf 103a adbf
00000110: 811e 51be 7518 823f c057 c73f f88f 4abe
00000120: d745 abbb eb84 8bbf 0708 453e d206 7abf
00000130: 7ae0 c0bf c14d 4fc0 2077 a73f 6cb8 4340
00000140: 50e0 d93f 195e 33bf baa5 59be 5558 2040
00000150: a08c 7abf f911 3bbf 5be5 ce3f c7a8 bb3e
00000160: dd75 733f aed4 6f3f efc5 c9be 1c32 b73f
00000170: 5375 afbf 82b0 523f ec5f 3840 71af 1e40
00000180: 7580 2c3c 4686 903f e565 61bf a94e 373f
00000190: 0652 d3bf 1e57 3040 c707 a4bf e99a 0bbf
000001a0: b263 a2bf 85d4 c7bf 0b27 463f 6793 8f3f
000001b0: 5024 5bbf 257f ffbd b050 c03e cec6 f33f
000001c0: c357 96bf 8a88 513f c442 6fbd 9237 84bf
000001d0: 5fba b53f ce33 cebf 5f9f 3c3f 7517 663d
000001e0: b22d 21be 0587 90bf d222 9f3e f7e1 a93e
000001f0: 9105 acbd 01b9 2bbf 5d23 a23f 652c b83f
00000200: 0f9e 97bf 4349 3640 750e 79be f49b 87be
00000210: f155 49bf 1c0a 27bf 2830 b13f ed61 1840
00000220: 8153 0f40 f538 9fbe 25fd c93f 117a 173f
00000230: 0e79 883e b604 573f 3893 773f d6db 6f3f
00000240: 0325 623f 00ba 0f40 dab0 e63e 25c5 3b3f
00000250: fc15 593f 950e 2d3f 83f6 3540 083c 973f
00000260: d1ad ac3f 53b7 bb3f 608f e83c e8a9 04be
00000270: beb3 243f 1fc4 2bbe c835 a5bd 5110 56bf
00000280: ab10 3abf 26a6 9cbe b502 05be bbfe 6d3f
00000290: 15cf 57bf 4ae8 10bf 5334 28be f5d9 b3bf
000002a0: 0a9b 1f3e 647e 72bf a9b1 42be a2e5 df3f
000002b0: ba6e b13f fcd2 41bf 04d8 64bf 38cf 7d3f
000002c0: ec7b 4d3f ba98 b13e 3aa1 87bf ad6f f03d
000002d0: 179c 9d3f 6f24 2abe 3e25 b13b e462 393f
000002e0: 999d 3bbf eace 00be b9c0 0dbe 54cd 5e40
000002f0: 5577 b53f dde3 68be 8ecc 65bf 7a93 783f
00000300: 7e09 293f fa38 1940 4d01 c73f d4be b23e
00000310: 6369 433f 1a4a ca3f ddb5 cb3f 166a a9be
00000320: 0ce4 a7bf abc7 813f d9f6 a7be f9d9 d63f
00000330: e16d 353f 9f37 8f3f 7369 28bf e9c2 1340
00000340: d365 b5bf 17f0 023f b21b e73f 59a2 8b3e
00000350: 80c7 da3f 3a4b 0abe a0eb 753f 2cf7 0040
00000360: 7d6e f63f 187e 1840 0cc6 eb3b 5448 3dc0
00000370: 5b46 d6be f9b1 113f 5e6a 4fbf 8951 d0bf
00000380: 3cc4 0fbf 6b7f 0fc0 7927 83bf 8bc7 513e
00000390: 2045 e03f d41b 25bf 72c3 7440 c9a2 b13f
000003a0: d1b1 7640 aafd 6b3f 9a37 f23f de7a 9dbe
000003b0: 7d28 8b3f 06ed 7bbf ab84 413e 7d3b 9c3d
000003c0: 0c28 aa3f 8c75 87bf fe08 6dbf dbc1 a7bf
000003d0: bd18 203f d3a2 b53e 1ef5 c6be e5d1 93be
000003e0: 8e31 453f 7192 a63e 6be6 e23f cfc1 033f
000003f0: 95bd ee3d f31f c13f ed92 5cbf 931b 95bf
0.21408643 0.96761787 0.5428612 2.06123 0.26211938 2.0603797 0.5778958 -0.19289291
-1.1834148 1.3493148 0.33951947 1.622247 -2.2432537 0.16166712 1.1652509 1.5854125
2.2331903 2.0716276 -1.1799184 -0.17145614 1.0578407 2.7205493 0.40660158 2.941594
-1.9189324 0.38600633 1.6669376 1.8569957 0.61768055 0.26418692 0.3348468 2.006305
-1.5502228 1.7995883 2.032183 -0.9476546 0.09214338 -0.1440416 0.81447196 1.8203806
-0.7151311 0.2759543 -1.8530815 0.8782069 -0.9720376 1.332271 -0.6022291 0.16427252
-2.4216428 1.0031844 3.2285986 2.076266 0.78651685 -0.28975227 -1.3790367 1.8090283
-0.016471568 -0.17591153 0.44429484 -0.7037074 1.3264208 -0.12888303 -1.8810887 2.0472689
0.049529187 0.6405479 -1.3000646 -1.3533344 -0.20421793 1.0163714 1.5573654 -0.19781482
-0.0052268314 -1.0899938 0.19241343 -0.97666657 -1.5068505 -3.2391207 1.3083229 3.0581312
1.702158 -0.70065457 -0.21254626 2.5053914 -0.97870827 -0.730743 1.6163744 0.36652204
0.9510172 0.936839 -0.39408824 1.4312167 -1.370768 0.8230058 2.8808546 2.479458
0.010528673 1.1290977 -0.88046104 0.716044 -1.6509407 2.7553172 -1.2814873 -0.5453325
-1.2686675 -1.5611731 0.77403325 1.1216859 -0.85602283 -0.12475423 0.3756156 1.9045045
-1.1745533 0.8184897 -0.058413282 -1.0329459 1.4197501 -1.610956 0.7368068 0.056174714
-0.15740088 -1.1291205 0.31081253 0.3318021 -0.08399499 -0.6707917 1.2667042 1.4388548
-1.1845111 2.8482215 -0.24321921 -0.2648617 -0.7864676 -0.652498 1.3842821 2.380977
2.2394717 -0.31098142 1.5780379 0.59170634 0.26654857 0.83991563 0.96709013 0.9369482
0.88337725 2.2457275 0.45056802 0.73347694 0.8479917 0.67600375 2.843171 1.1815195
1.3490545 1.4665321 0.028388679 -0.12955439 0.64336765 -0.16774033 -0.080668986 -0.83618647
-0.72681683 -0.3059551 -0.12989314 0.9296681 -0.8430036 -0.56604445 -0.1642621 -1.405089
0.15586486 -0.94724107 -0.19013084 1.7491953 1.3861916 -0.7571256 -0.89392114 0.99144316
0.80267215 0.34686834 -1.0596077 0.117400505 1.231326 -0.16615461 0.005406051 0.7241652
-0.7328735 -0.12578931 -0.13843049 3.4812822 1.4177042 -0.22743173 -0.8976525 0.9710003
0.6603011 2.3941026 1.5547272 0.34911215 0.7633268 1.5803864 1.5914875 -0.3308875
-1.3116469 1.0139059 -0.32805517 1.678527 0.70870787 1.1188849 -0.657859 2.3087714
-1.4171699 0.511476 1.8055327 0.272723 1.7092133 -0.13505259 0.9606266 2.0150862
1.9252468 2.3826962 0.00719524 -2.9575396 -0.41850552 0.5691219 -0.8102168 -1.6274883
-0.56158805 -2.242152 -1.0246421 0.20486276 1.7521095 -0.6449559 3.824429 1.3877803
3.854603 0.92183936 1.8923218 -0.30757803 1.0871731 -0.98408544 0.18898265 0.07628534
1.3293471 -1.0582747 -0.92591846 -1.3106035 0.6253775 0.35475788 -0.38858885 -0.28871074
0.7702874 0.325336 1.7726568 0.51467603 0.11657254 1.5087875 -0.8616169 -1.164904

l1.bias f4 [8]
00000000: 9ceb 083f 6011 6f3f e098 9d3f 4cc6 8e3f
00000010: 3889 4b3f e6a9 553f bf95 873f a0a2 853f
0.5348451 0.9338589 1.2312279 1.1154265 0.79506254 0.8346237 1.0592574 1.0440254

l2.weight f4 [8, 8]
00000000: 7aaf 80bf e1a9 c93f 06c7 b93f 667b 0f3f
00000010: 1d1f edbf 4903 77bf d6e3 f53f 9ddc 9d3f
00000020: 024d b1be 2646 5d3f a32f 2fbf 46fd 9fbd
00000030: 8336 1d3e 720d 0a3f 6d24 8fbe 08dc 4c3f
00000040: d151 8ebf 0bc6 1540 21c2 3040 25ae 5d3f
00000050: fa20 3840 b08b 093f 1462 f2bf d8d7 9a3e
00000060: c60b 2540 7633 7d3f 800c ffbf a723 ed3e
00000070: fe1c 0f40 5783 91bf 6160 af3f fd37 c23f
00000080: d27b 8dbe 3398 cb3f 279e 203f 00b0 a2bf
00000090: 116c dcbf 50b2 ce3e defb e73f 76fa 6e3f
000000a0: 0e82 8cbf 9dd9 4abf 09a7 8bbe 9f5a 81bf
000000b0: 2311 473f 72fb 4940 3f02 62be dc91 1e40
000000c0: 15a5 d03f 6c28 aebf 7704 0640 e993 97bf
000000d0: 6e0d 893d 24bb 93be b33a e43f e939 8c3e
000000e0: 3ce1 1640 7630 edbf a469 1f3f a428 7040
000000f0: 1187 75bf a6e3 1c40 3c29 b13f 1b88 44bf
-1.0053551 1.5754968 1.4513862 0.56047666 -1.852512 -0.9648939 1.9210155 1.2332951
-0.34629065 0.86435163 -0.6843206 -0.0781198 0.15352826 0.53926766 -0.27957478 0.8002324
-1.1118718 2.3402126 2.7618487 0.8659385 2.8770127 0.5372877 -1.8936181 0.302428
2.5788436 0.9890665 -1.992569 0.46316263 2.2361445 -1.1368207 1.3701288 1.5173336
-0.2763353 1.5905823 0.6274132 -1.2709961 -1.7220479 0.40370417 1.8123739 0.93350923
-1.097719 -0.792383 -0.27275875 -1.010578 0.77760524 3.155972 -0.2207117 2.4776525
1.6300379 -1.3606086 2.0940225 -1.1842014 0.06692015 -0.28853714 1.7830414 0.27387932
2.3574972 -1.8530414 0.6227057 3.7524805 -0.9590922 2.4513946 1.3840709 -0.7677018

l2.bias f4 [8]
00000000: e7bb 963f ae68 82bd 841c 8c3e ff5f 1c3f
00000010: 07d5 c5be cc55 c23e 3d33 c8bc 8864 113f
1.1776093 -0.06367622 0.27365506 0.6108398 -0.3863909 0.37956083 -0.024438495 0.56794024

l3.weight f4 [96, 8]
00000000: 6c6f 6cbf b2c5 b83f 4c8e 39bf 7e26 50bf
00000010: 2243 f9be 0775 ba3f 1f05 24c0 e98a 0cbf
00000020: 9eae 95bf 9b07 783f d75e 2e3f 950c a2be
00000030: c055 5dbf f944 ad3f 739f b2c0 f042 6bc0
00000040: 519f d5c0 7574 2fc0 5ab7 973e 9c33 a5bf
00000050: 41c0 0dc0 b149 9cc0 596e 873e 5ee7 a43e
00000060: c585 06c1 d0ed bd3f 0499 3dbe 4462 05bf
00000070: ff36 bac0 067a e73f 6915 e8bf d5f1 d33e
00000080: 5f6c 15bf db7c cdbe b57a aabe e8e1 f8be
00000090: 17ce babf 452e 893e ae58 c7be a3d4 50be
000000a0: 5b82 47c0 a19a a73f c1a8 353f f094 aabf
000000b0: a8f7 b8c0 230e 993f 2550 f8c0 0080 cc3d
000000c0: d2df ffbf 8d03 6ac0 767d c8be fc18 78bf
000000d0: 94f3 fec0 98c3 bcbf e4d4 0a3f da47 c03e
000000e0: b769 5bc0 a324 00c0 ed26 a53f 1bc5 a9bf
000000f0: 30bd 79c0 6baa c0bf a2e8 81bf a0e6 36bf
00000100: dba2 8ec0 2739 723f 343e 143f 421d 5bbe
00000110: 0f72 b2c0 9b19 bc3f f0b3 f2bf 65ce 98bf
00000120: 7e88 833f 0b0f 23c0 b7f8 b0bd 982d 17bf
00000130: 53f4 07c1 b034 bcc0 4dd9 e13e 18fb 85be
00000140: 8f5e 01c0 e5a5 9abd b272 c83e 6ba5 47be
00000150: 796a 1cbf 6a47 0a3f 059f 1ac0 321b 48bf
00000160: e9c8 37c0 c086 aebf 8149 083c e14f cfbf
00000170: c961 06c0 89f2 953f fabc 903d 7840 1dbe
00000180: b762 8bc0 ad44 17c0 066c 863d 7b5c 8ebf
00000190: ba96 7bc0 02c8 78bf c054 943f a6d3 f8be
000001a0: c2c4 45bf cfe1 55be ebc0 a73e c387 d13d
000001b0: 23bb 77c0 7984 4ec0 8e2c 1fc0 f5ef 043e
000001c0: 095b 8abf a3a7 76c0 bdd7 dbbe c31c adc0
000001d0: 1454 5d3e 057d 613f 53cb 2a3f 5668 b0be
000001e0: 783f 613e e340 c73e 16b1 2dc0 c000 4d3f
000001f0: 7c9f bd3e 3c1b e3be b8ed 8ebf 391c 3ec0
00000200: ce5c 2fc0 039a 6ebf e668 1039 9e3d 33bf
00000210: f2ba debf d4f3 5e3f 3a7d 623f eca9 e5bf
00000220: 1457 84bf eea6 14bf 37d8 13c0 2821 363f
00000230: 71bc d43d dde5 9ac0 294d 85be 4557 90bf
00000240: eb5d 71c0 25fc 9d3e 6359 66be 6928 c2bb
00000250: 32ac 99bf e36a 383e d412 42bf feba 03bf
00000260: 66ec a1bf a83e fc3e b54d 3cbf 77d7 ca3e
00000270: 233f abbf f16c ef3e b0c2 97bf 7f7f c4bf
00000280: 7633 44bf 9717 93c0 ecda 243f d652 18bf
00000290: 5170 e4bd a1b0 cdbf 8fdf f7be 2384 5fbf
000002a0: 2b29 53c0 c352 d8be b33a 083f e14f a13c
000002b0: 700e b5bf dc8c d7b7 9ebe 87bf c453 eebf
000002c0: 35ce 3f3f a77f 88be 109a 3f3f 42da 5dc0
000002d0: 0ba1 803f 0027 1fc0 4015 2ec0 d129 67bf
000002e0: 9321 d1c0 a490 bbbf c0eb 31c0 36c8 8cbc
000002f0: c3da 9cc0 7b18 33c0 525f 25bf 2cff 3a3f
00000300: ce7c 6ebf 904f 413f 2133 92be f7bc 253f
00000310: 232a f2be e186 56be 722e 03c0 790f 54c0
00000320: d3cf 47bf c92b 8ebf 8502 2a3f cbb4 b73d
00000330: e3fa 8dbf 72ec 8fbf 5a3e 0dbf 4083 c3c0
00000340: e4f7 31bf 5e35 adc0 d28e febe 3a77 78bf
00000350: 8b01 86be 223d 81bf 60d7 4a3f 9ac5 14bf
00000360: 6543 bfbf cd56 67c0 1a79 14bf b4ac 12c0
00000370: 090e 3abe ac17 2d3c b014 533d d220 d73e
00000380: d10e 973e d81a 41bf 113b d9bf da24 b1be
00000390: 18cc 8a3f 5c24 27c0 ffff 3ebf 73ff f3be
000003a0: 5a4f 90bd 6057 eebf 3461 dc3f 05ab 82c0
000003b0: 6cfd 8cbe 429a 10bf 806e 05bd 3b47 6dc0
000003c0: ef88 b23e 6a44 5bbe 1f29 713f ecc6 afbf
000003d0: e6cc 8fbe cda0 73bf 81aa 2fbf 7cd7 bdc0
000003e0: bfe9 5ebf 92e0 80be d970 693e 6562 67bd
000003f0: b9d7 d2c0 43d8 07c0 531a 95c0 4fe3 ae3e
-0.92357516 1.4435332 -0.7248275 -0.81308734 -0.4868403 1.4566964 -2.5628126 -0.5489946
-1.1693914 0.96886605 0.68113464 -0.31650224 -0.8645897 1.3536674 -5.581964 -3.6759605
-6.675698 -2.741483 0.29632074 -1.2906375 -2.2148592 -4.8839955 0.26451376 0.3220777
-8.407659 1.48382 -0.18515402 -0.52103066 -5.8192134 1.8084114 -1.8131534 0.4139544
-0.58368486 -0.4013432 -0.33296743 -0.48609853 -1.4594144 0.26793113 -0.38934845 -0.20393614
-3.1173313 1.3094064 0.70960623 -1.3326702 -5.7802315 1.1957439 -7.7597833 0.099853516
-1.999018 -3.6564667 -0.3915822 -0.96913123 -7.9672337 -1.474719 0.54231095 0.37554818
-3.4283273 -2.0022361 1.2902504 -1.3263277 -3.902172 -1.5052007 -1.0149119 -0.71445656
-4.45738 0.9461846 0.57907414 -0.2139788 -5.576423 1.4695314 -1.8961163 -1.1937987
1.0276029 -2.5477931 -0.086411886 -0.59053946 -8.497149 -5.8814316 0.441111 -0.26168132
-2.0213964 -0.07551173 0.39150006 -0.19496696 -0.61099964 0.5401522 -2.4159558 -0.78166497
-2.8716376 -1.3634872 0.008318306 -1.6196252 -2.0997183 1.1714641 0.070672944 -0.15356624
-4.3558 -2.3635666 0.065635726 -1.1121973 -3.9310746 -0.9718019 1.1588364 -0.48598975
-0.77253354 -0.2088692 0.32764372 0.102309726 -3.870797 -3.2268355 -2.4870944 0.12982161
-1.0809032 -3.8539817 -0.42938033 -5.409761 0.21614105 0.8808139 0.667165 -0.34454602
0.21996868 0.38916692 -2.7139335 0.8007927 0.3703574 -0.44356716 -1.1166296 -2.9704726
-2.7400393 -0.93203753 0.00013771988 -0.70015895 -1.7400801 0.870908 0.8847233 -1.7942481
-1.0339074 -0.58067214 -2.3100717 0.7114434 0.10387505 -4.8405595 -0.2603543 -1.1276633
-3.7713573 0.30856434 -0.22495036 -0.0059252274 -1.2005675 0.18009524 -0.7580998 -0.514572
-1.2650268 0.49266553 -0.7355607 0.39617512 -1.3378643 0.46762803 -1.1856289 -1.5351409
-0.76641023 -4.5966296 0.6439655 -0.595014 -0.11154235 -1.6069528 -0.4841275 -0.87311
-3.2993877 -0.42250642 0.5321457 0.01969141 -1.4145031 -2.569559e-05 -1.0605047 -1.8619313
0.7492402 -0.2665989 0.74844456 -3.4664464 1.0049146 -2.4867554 -2.720047 -0.9029818
-6.5353484 -1.4653516 -2.780014 -0.017185312 -4.9017043 -2.7983692 -0.6459857 0.7304561
-0.93159187 0.7551203 -0.28554633 0.6474146 -0.47297773 -0.2094989 -2.0497098 -3.3134444
-0.7805149 -1.1107112 0.66410094 0.089700304 -1.109219 -1.1244032 -0.55173266 -6.1097717
-0.69518876 -5.4127645 -0.49718338 -0.97056925 -0.26173052 -1.0096781 0.79234886 -0.58114016
-1.4942442 -3.614673 -0.57997286 -2.291791 -0.18169416 0.010564726 0.0515334 0.42017227
0.29503492 -0.75431585 -1.6971151 -0.34598428 1.0843534 -2.6115942 -0.7460937 -0.4765583
-0.07046385 -1.8620415 1.7217164 -4.0833764 -0.27537096 -0.5648538 -0.032576084 -3.7074726
0.34870097 -0.21412817 0.9420337 -1.3732581 -0.28086013 -0.9516724 -0.68619543 -5.9325542
-0.8707542 -0.25171334 0.22796954 -0.05649032 -6.5888333 -2.1225746 -4.6594634 0.34157798

l3.bias f4 [96]
00000000: 89fc cd3e 302b 023d 83c6 9bbf 19bd 903f
00000010: cb3f aebf 3324 f3bf c4be a5bf 7709 a0be
00000020: 6814 12bf 8b6e 90bf 138b 9ebf 8286 13c0
00000030: 4ded 9fbd 2d04 413e 92b4 3bbf 8b48 c63e
00000040: 7ecd 923f 4219 cabe b996 17c0 5426 8bbf
00000050: c14a 583f 91f3 78bf 42dd efbe b00d 88bf
00000060: 2767 ffbe 3ae9 093f 9c70 dcbf 8807 bdbf
00000070: 3bc3 adbf e6a2 bc3e 7932 b7bf 341e d33e
00000080: c65f 2cc0 5e50 d23e d06f 9dbf b5ca 5b3f
00000090: 7f60 b7bf 2e21 07c0 2a10 ddbe 9cef e7bd
000000a0: 3d39 8bbf d0d1 1abf 622d 14be c338 d73c
000000b0: d0c7 1fbf 60e8 943e 806b be3e cc2e 093e
000000c0: f518 813f 9514 023f a8ff 89bd ed99 8abf
000000d0: c570 0abf 30be 28c0 ab2c e6bf 302c e5bf
000000e0: dfea 2abf bb14 4abf 8a61 cfbe 4818 3e3e
000000f0: 96bd 78bf 0d5d 373e 3cff 59bf e44b 1bc0
00000100: 9c1a 7bbf 7c5e ce3d 8baa 48be 9b71 67c0
00000110: f50d 81bf db39 8e3f 2973 2fbf 76f7 06c0
00000120: 48aa bcbe 9174 d33e 58c9 a53f f36e 323f
00000130: 1ca7 053e ded6 62bf a991 36bf a17e 9b3f
00000140: d814 f5bf bc59 4dbf 1717 94bf 8d60 6abf
00000150: c402 08be 8bc1 d0bd 0220 45bd 86a9 9b3f
00000160: 694f 0c3f 3557 a1bf a77d 87bf b1ca 14be
00000170: 36b9 91bf e300 56bf 395b dfbf cb7e 9b3d
0.40231732 0.031779468 -1.2169956 1.1307708 -1.3613218 -1.8995422 -1.2948842 -0.3125722
-0.5706239 -1.1283735 -1.2386192 -2.3050847 -0.078089334 0.18849249 -0.73322403 0.3872722
1.1468961 -0.39472395 -2.3685744 -1.0871072 0.84489065 -0.9724665 -0.46848494 -1.0629177
-0.49883386 0.538715 -1.7221866 -1.4767923 -1.3575205 0.36843032 -1.4312278 0.4123398
-2.6933455 0.4107694 -1.2299747 0.8585618 -1.4326323 -2.1114001 -0.43176395 -0.11324999
-1.0876843 -0.604764 -0.14470437 0.026272183 -0.62414265 0.29083538 0.3719139 0.13396758
1.0085741 0.50812656 -0.06738216 -1.0828224 -0.5407832 -2.6366081 -1.7982382 -1.790411
-0.66764635 -0.7893788 -0.40504104 0.1856395 -0.97164285 0.1790659 -0.8515508 -2.426507
-0.9808748 0.10076615 -0.19596307 -3.616309 -1.0082384 1.1111406 -0.68535095 -2.1088538
-0.36848664 0.4129987 1.295207 0.69700545 0.13052028 -0.8860911 -0.7131601 1.2148019
-1.9146986 -0.8021505 -1.1569546 -0.91553575 -0.13282305 -0.101931654 -0.04812623 1.216111
0.5480867 -1.2604738 -1.0585221 -0.14530446 -1.1384647 -0.83595103 -1.7449714 0.07592543
