data.pth (torch, 30551 bytes, 6 tensors)

l1.weight f4 [8, 492]
000000 b8 d1 30 3f fe fd d5 bf 6e e5 8c 3e d1 f3 55 be
       0.69070005 -1.6718137 0.2751879 -0.2089379
000010 15 0e 7f 40 95 e2 35 3e 90 0d 8f 40 52 a3 9e 40
       3.9852345 0.17762215 4.4704056 4.9574366
000020 d6 23 9c bf 9c a9 90 bf 9a ef ac 40 c4 4b a3 40
       -1.2198436 -1.1301761 5.404248 5.1029987
000030 7c 06 9e 40 18 ce 96 40 3e 0c 9c 40 62 70 4a 40
       4.9382915 4.712658 4.8764944 3.1631093
000040 49 7b 30 3e 75 34 52 3f 16 59 8c bf d3 25 99 be
       0.1723453 0.82111293 -1.0964687 -0.2991167
000050 04 bc 7a 40 ef a9 72 40 ae 33 41 40 e2 a0 47 40
       3.9177256 3.791622 3.0187793 3.1191945
000060 b5 5c 9f 3e 9a ab 3c 3e fa b6 06 40 1d eb e0 3f
       0.31125417 0.18424836 2.104918 1.7571751
000070 56 26 54 40 07 94 30 40 08 3d ad 3f 74 f0 97 3f
       3.3148398 2.7590349 1.353425 1.1870255
000080 c8 86 96 40 2c 93 88 40 4c 69 d4 be bd 0b e1 bd
       4.703953 4.2679653 -0.41486585 -0.10988567
000090 3c 8b 65 3f d0 31 86 3f 37 bb aa 3f d2 80 8d 3f
       0.8966558 1.0483952 1.3338383 1.1054938
0000a0 c4 ca b5 bf e7 ec 9f bf 7e 4a 7e 40 76 1e 87 40
       -1.4202504 -1.2494172 3.9732966 4.2224684
0000b0 40 7a 4d bf 8f 88 8e bd 44 f1 16 40 a5 43 0e 40
       -0.80264664 -0.0695964 2.3584757 2.2228787
0000c0 23 52 83 40 a4 0a 9a 3f 71 46 f7 3f 09 cb 1d 40
       4.1037765 1.2034497 1.9318372 2.4655173
0000d0 f3 57 53 40 76 66 69 40 15 cd 38 40 3d 2c 3a 40
       3.302243 3.6468787 2.8875172 2.90895
0000e0 b3 c2 30 40 fb 7e 30 40 70 19 d1 bf 15 82 9b bf
       2.7618835 2.7577503 -1.6335888 -1.2149073
0000f0 83 3e ba bf 72 8f 90 bf 08 8e ee 3e f1 d2 48 3f
       -1.4550327 -1.1293776 0.46592736 0.7844687
000100 58 bf 15 40 48 a4 c7 3f 2b a8 aa bf f2 0f dd be
       2.3398037 1.559701 -1.3332571 -0.43176228
000110 40 8d c6 be 50 92 65 be e5 66 12 40 2a d7 c0 bf
       -0.3877964 -0.22419095 2.2875302 -1.5065663
000120 8a fc a2 be bc 7f dc bd c9 1c 3c be 96 86 c2 bf
       -0.31833297 -0.10766551 -0.18370356 -1.5197322
000130 ef 56 9c bf 47 fe a0 bf 7f 7b b7 bf 08 a7 0b bf
       -1.221403 -1.2577599 -1.4334563 -0.54551744
000140 32 51 9b bf 3e bd 9d bf ca 92 58 40 49 e9 67 40
       -1.2134154 -1.2323377 3.3839593 3.6236136
000150 7b 89 ce be 9f 66 0e bf fc 4b 6c 3e 77 8d 8a be
       -0.40339264 -0.5562534 0.2307586 -0.27061054
000160 53 b1 bf 3f 5e e7 12 3e c0 f6 04 3f 67 33 70 3d
       1.497599 0.14346072 0.5193901 0.05864277
000170 28 b2 a7 3e 6b 3e 86 40 c8 37 0b 3f 7d 1c 9f bf
       0.3275311 4.1951194 0.5438199 -1.2430569
000180 d9 ea 03 be fb 0f 30 3f 6d 48 8d 3e 19 59 73 bd
       -0.12882556 0.68774384 0.2759432 -0.059411142
000190 1f af 89 bf cd b3 cb 3e cc 02 a8 3f 86 21 78 3f
       -1.0756568 0.39785615 1.3125854 0.9692615
0001a0 2a af b9 3f 62 41 a1 3f d3 56 bc be 84 a1 ac 3e
       1.4506581 1.2598078 -0.36784992 0.33716977
0001b0 74 6a 3d bd 09 a6 34 c0 e0 2b c4 3f 16 7c c7 bf
       -0.0462441 -2.822634 1.532589 -1.5584743
0001c0 20 03 c2 3e 40 1f aa 40 c9 12 08 40 a7 5c 0f 3f
       0.3789301 5.3163147 2.1261466 0.5600075
0001d0 de a3 83 3f ae d6 8b 3f f4 11 dc 3f 6b ab 57 40
       1.0284383 1.092489 1.7192979 3.3698375
0001e0 7e 35 0e 40 80 49 79 40 3f 83 52 40 15 9b 16 3f
       2.222015 3.895111 3.2892606 0.58830386
0001f0 5b 42 de bf 20 52 15 40 7e a1 c5 3f 87 ad 70 3e
       -1.7364 2.3331375 1.5439909 0.23503695
000200 e9 a4 d6 bd ab 2f 40 3f d6 cd 9c 3e 3b 9d 8b bf
       -0.10480673 0.75072736 0.3062579 -1.0907358
000210 70 ed 70 be 35 51 ad 3f 1a 96 26 40 15 e0 5b 40
       -0.23528075 1.3540407 2.6029115 3.435552
000220 ab 05 37 bf d8 1e 92 bf a8 1e 18 c0 22 a2 06 3f
       -0.71493024 -1.1415663 -2.376871 0.52591145
000230 dc 95 e4 3f 39 41 c0 3c 73 a7 b7 3f 53 48 b1 3f
       1.7858233 0.0234686 1.4347976 1.3850197
000240 a3 cf ab 3e d2 43 75 40 c7 6b ad 3f 4d 8e af 3f
       0.33556852 3.8322644 1.3548516 1.3715302
000250 d2 69 c3 3f 14 37 b2 3f 10 8c 97 3b ba 3d b0 3e
       1.5266669 1.3923059 0.004624851 0.34422094
000260 a5 ba 53 3f 03 34 ad 3f 36 3a 62 3f c9 66 8f 3f
       0.8270667 1.3531498 0.8837007 1.1203243
000270 c8 41 6b 40 50 05 76 3f 5f 0a 1d 3f b8 9d 4c bd
       3.67589 0.96101856 0.6134395 -0.0499551
000280 e9 b7 70 40 12 dd 3a bd 1d 2a bb bf b0 56 f0 3e
       3.761225 -0.045620985 -1.4622227 0.46941137
000290 9d c9 5a 40 78 9d c1 3f fb aa cd bf 43 37 26 3f
       3.4185555 1.5126181 -1.6067804 0.6492807
0002a0 fc fd d0 3f 72 fd 54 40 99 9d 6a be a7 32 d4 be
       1.632751 3.327969 -0.22911681 -0.41444895
0002b0 04 b9 dc 3f e5 94 d3 be b0 8c b3 bf 11 f6 f4 3f
       1.7243962 -0.41324535 -1.402731 1.9137594
0002c0 aa 38 7a 3e d7 d7 39 3f 8a 55 97 c0 db c9 5b be
       0.24435678 0.7259497 -4.729192 -0.2146372
0002d0 30 40 06 be 67 cf f8 3f 04 97 f5 3f fd d4 3b 3f
       -0.13110423 1.9438294 1.9186711 0.7337187
0002e0 50 f9 c8 bf 54 19 1d 40 3f 74 34 40 77 eb 9e 3f
       -1.5701084 2.454671 2.819595 1.2415608
0002f0 7f a3 9d bf 6c 4f ac bf 9a 55 3f be bc 9e 0a 3f
       -1.231552 -1.3461738 -0.18684998 0.5414846
000300 78 6c f1 3f 3b 62 35 40 b7 7d f1 bc 5c 19 0f 40
       1.8861227 2.8341205 -0.02947889 2.2359228
000310 a4 6a 97 be 2e 65 81 3e 92 24 d1 be 86 e0 cd 3f
       -0.29573548 0.25272506 -0.40848213 1.6084144
000320 2e 5f 17 40 ee 67 c5 3f 38 bb 9b be 7b 03 3a 40
       2.3651843 1.5422342 -0.30416274 2.9064624
000330 66 36 df 3d 76 ef 35 bf 45 ba 57 40 d6 0a 16 be
       0.108990476 -0.71068513 3.370744 -0.14652571
000340 7d f0 9d 3f ca e6 6e 3f 29 b7 37 3f 51 14 1e 40
       1.2339016 0.93320906 0.71763855 2.46999
000350 aa 77 05 40 dd 97 a1 3c 1e 0f 0e 40 92 be 06 bf
       2.0854287 0.019725734 2.2196727 -0.5263454
000360 6f 87 ae 3e 82 59 48 c0 95 4e 76 bf 97 93 c2 bf
       0.34087703 -3.1304631 -0.96213657 -1.5201291
000370 ae 2a 46 40 e4 6f 19 40 10 38 a8 bc 98 96 26 40
       3.096355 2.3974543 -0.020534545 2.6029415
000380 12 b1 0b 3f 91 d7 69 3f 7a a4 9d bf 5f 13 09 bd
       0.5456706 0.91344553 -1.2315819 -0.03346574
000390 05 f4 44 3f 15 c9 80 bf 5a 32 4f bf 0f 9b bb 3f
       0.76934844 -1.0061365 -0.80936205 1.4656695
0003a0 28 de 2b 40 cc d1 b0 3f 07 4e 09 40 4d a5 bd 3c
       2.6854343 1.3814025 2.1453874 0.02315011
0003b0 32 e0 8d 3e 5b 28 8c 40 5d a8 85 3f 2d 7a 9e 3f
       0.2771011 4.379926 1.0442005 1.2381035
0003c0 3a 92 c5 3f 25 d5 fb bd bf 73 2b 40 8b a4 69 3f
       1.543525 -0.122965135 2.6789396 0.912667
0003d0 95 ea af 40 cd d2 ad 3f 54 d8 29 40 a0 f6 2a 40
       5.4973855 1.3579956 2.6538286 2.6713028
0003e0 cf 5b b7 bd a6 87 0e 40 60 98 93 3f fa 61 88 40
       -0.08953058 2.2270293 1.1530876 4.26196
0003f0 1f 4d ba 3f f9 2d 94 3f 20 35 09 40 b0 01 19 40
       1.4554785 1.157653 2.1438675 2.390728

l1.bias f4 [8]
000000 0f 8c 35 3f b0 41 59 3f ec 8f fe 3e 14 4e 39 3f
       0.7091684 0.84865856 0.4971918 0.7238476
000010 e9 aa 85 3f b7 84 ac 3f b8 81 42 3f fe 12 11 3f
       1.0442783 1.3478001 0.75979185 0.56669605

l2.weight f4 [8, 8]
000000 2a 5c b8 3f 1b 20 46 40 31 9f a1 bf ef 65 f0 bf
       1.4403126 3.0957096 -1.2626706 -1.8781108
000010 c7 31 82 bf ed 45 aa 3f 5a 47 aa be c5 3d d0 3f
       -1.0171441 1.330259 -0.33257562 1.626885
000020 f3 06 d0 3f 79 38 8c bf 9c cf 3b 3e 0d 4e ef bf
       1.6252121 -1.0954734 0.18340915 -1.8695694
000030 07 ee 1e 3f 7a 8a 4c 40 07 aa da 3f 1f 3e ab bf
       0.6208195 3.195952 1.7083138 -1.3378333
000040 59 fa 9e 3f 9e 68 5f bf 03 51 06 40 a2 ac 0e c0
       1.242015 -0.8726901 2.0986946 -2.2292867
000050 e9 49 39 40 71 44 84 be b4 ba 26 c0 39 9e 0e 40
       2.895136 -0.25833467 -2.6051455 2.2284071
000060 1f 9b d9 be 68 6b 9d 3f 00 ed ad bf 16 e4 ae 3f
       -0.4250116 1.2298403 -1.3587952 1.3663356
000070 ba 6f 61 bf 42 b4 57 3f f7 30 44 40 58 f4 78 bf
       -0.88061106 0.84259427 3.0654886 -0.9724784
000080 97 38 50 40 bb 2b b4 bf 89 3a c6 bd 6c 18 c7 3f
       3.253454 -1.4075845 -0.096791334 1.5554328
000090 4d 52 2b be e9 c5 1c c0 38 1c 3a 40 c8 74 3f 40
       -0.16730614 -2.4495795 2.9079723 2.9915028
0000a0 92 0a 03 40 cb cb 14 c0 d0 6d 91 40 c9 0f 2b 40
       2.0475202 -2.3249385 4.544655 2.6728384
0000b0 5a 20 b3 bf cf 19 f8 3f e8 e7 c1 bf df 56 c8 bc
       -1.3994248 1.9382876 -1.5148897 -0.024455486
0000c0 fe 26 01 be 4b 3b 2f be 6d 66 d7 3d 0a a0 33 3d
       -0.1261253 -0.17112462 0.10517583 0.043853797
0000d0 5f 0c 8c be 30 e0 28 bd bf 45 16 be 1c 62 1a be
       -0.27353188 -0.041229427 -0.14675044 -0.15076488
0000e0 db f2 c8 bf c4 56 e4 3b fd 8d 8d be 79 be 59 40
       -1.5699114 0.006968351 -0.2764739 3.4022505
0000f0 7f 01 64 40 2e 96 fa bd a7 d2 45 bf 63 c8 3f c0
       3.5625913 -0.12235676 -0.77274555 -2.9966056

l2.bias f4 [8]
000000 72 f1 21 3f 2e df 58 3f 6b 14 f6 3e c9 f0 6e 3e
       0.6325904 0.84715545 0.48062453 0.2333404
000010 09 f9 84 be 3c 06 e6 3d a5 00 44 be 97 d2 6c 3f
       -0.2597125 0.11231658 -0.19140871 0.92508835

l3.weight f4 [106, 8]
000000 e3 63 58 bf 56 08 e5 bf b9 92 c7 be c2 36 40 3e
       -0.84527415 -1.7893169 -0.38979128 0.18770888
000010 ca 63 42 bc 19 33 7f bf 22 f4 d6 3c ee bf fb 3d
       -0.011864612 -0.99687344 0.026239458 0.12292467
000020 0d 62 ad bf 32 ae d4 bf b3 6e 8b bf 06 90 04 bc
       -1.3545548 -1.661566 -1.0893158 -0.0080909785
000030 16 cd 12 be 83 6a 9f bf 66 7c 8a be f5 36 14 3f
       -0.14336047 -1.245438 -0.27048033 0.5789636
000040 23 71 61 bf af 87 98 bf 26 bb e0 3e 38 a7 36 bf
       -0.8806326 -1.1916407 0.43892783 -0.71348906
000050 b0 cb 64 3e de 88 85 c1 f9 4e a5 3e af c7 a7 3e
       0.22343326 -16.69183 0.32286814 0.32769534
000060 51 59 13 c0 91 ca 15 c1 46 f6 f0 3e 14 49 44 c1
       -2.3023264 -9.361955 0.47062892 -12.267841
000070 82 31 98 3f a6 52 37 3f f4 a8 d7 bd a3 53 55 c0
       1.1890109 0.71610487 -0.10530272 -3.3332298
000080 51 7a 61 bf 74 7c 00 bf 89 cd 60 3e c7 b7 10 bf
       -0.88077265 -0.501899 0.21953405 -0.5653042
000090 94 de 26 be b1 98 a4 bf 6e 76 73 3e 79 2d 9c bb
       -0.16295844 -1.2859098 0.23775646 -0.004766163
0000a0 f7 ce 08 3f 1f 8b 36 3f 14 d0 1f c0 5f 3c fc 3c
       0.53440803 0.7130603 -2.497075 0.030790506
0000b0 74 a9 43 c0 3b e7 d2 bf 7d fa 5e be a7 81 3a c1
       -3.0572176 -1.6476816 -0.21775241 -11.656653
0000c0 20 b7 90 3e f3 e2 27 3f 87 bc 26 c0 99 65 10 c0
       0.28264713 0.6558067 -2.6052568 -2.256201
0000d0 d2 6e fc c0 b5 ec 2d 3e e3 6a 03 be 51 38 f9 c0
       -7.888528 0.16984828 -0.12833743 -7.7881246
0000e0 5d 3e e4 bf aa 89 67 3f 1b c5 8b be 95 20 a3 bf
       -1.7831532 0.90444434 -0.27298817 -1.2744318
0000f0 5b ae 23 3f ae 1b 07 c0 75 16 5c 3e 17 f5 a9 c0
       0.6393792 -2.1110644 0.21492942 -5.311168
000100 5c 8f c5 bd 65 db de be ee b0 f1 3e 4c db b8 bf
       -0.09646484 -0.4352676 0.472053 -1.4441924
000110 5a 9a a1 3d a5 6b 85 c0 32 c0 24 3e 5b 67 d6 bf
       0.07890768 -4.16939 0.16088942 -1.6750292
000120 c1 83 d4 c0 51 92 03 3e 00 ba 81 3f 3e ef ea c0
       -6.6410832 0.12848784 1.0134888 -7.3417044
000130 76 8d 16 c1 75 fb 80 3e c4 98 07 be 15 00 a9 bf
       -9.409536 0.25191846 -0.13241869 -1.320315
000140 0d 38 30 c1 bd 00 0e 3f e9 6f 73 be cc 4e 0a bf
       -11.013684 0.55469877 -0.23773159 -0.54026484
000150 0a 31 33 bf dd 8e b6 bc 09 01 d5 bc e6 13 a2 bf
       -0.699967 -0.02228492 -0.02600147 -1.2662323
000160 ff 07 d4 c0 85 29 9d bf a0 99 ef c0 62 d0 09 3f
       -6.625976 -1.2278296 -7.487503 0.5383359
000170 9c aa 9c 3e 75 96 0f bf d3 50 5c 3e a7 17 99 bf
       0.30598915 -0.56088954 0.21515207 -1.1960343
000180 bf 28 55 bf 4b be ef bf df 90 b7 3e 87 3d fd be
       -0.832653 -1.8729948 0.35852715 -0.49461004
000190 7d dc 44 3e ae 13 24 bf 43 ff 9e 3e b4 1b 7d 3c
       0.19224735 -0.6409253 0.31054124 0.0154484995
0001a0 c1 d7 06 c0 f4 1c e4 c0 7b f4 bd c0 56 39 85 3e
       -2.1069186 -7.1285343 -5.936094 0.26020306
0001b0 9f 7d 09 3f 51 93 60 3f fe d3 a7 bd a9 ad b8 bf
       0.5370731 0.87724787 -0.08194731 -1.4427997
0001c0 3a 31 f9 bf e7 df 3f c0 f9 8e e1 3e a2 9c a0 bf
       -1.9468148 -2.998041 0.44054392 -1.25478
0001d0 d7 ab 6d be 25 fa 3f bf fc bc 07 3e 31 d5 d7 3e
       -0.23210083 -0.74991065 0.13255686 0.4215484
0001e0 86 de a6 c0 84 df 8c 3e 9d 14 82 bd ac a5 f4 c0
       -5.2146635 0.2751428 -0.06351588 -7.6452236
0001f0 1f 29 64 3d 49 3e d1 3e 59 47 42 be 24 f0 0d c0
       0.05570328 0.40867832 -0.1897253 -2.217782
000200 33 5c 25 bf 9d f8 da c0 f5 74 81 bf c0 cd ab bf
       -0.6459381 -6.8428483 -1.0113817 -1.3422165
000210 75 c8 cb be 35 ac a3 3f 11 78 95 3d 21 2e 51 c0
       -0.39801374 1.2786928 0.072982915 -3.2684405
000220 b5 69 fc bf 9a 3f 0d c1 b0 ba f8 bf 92 19 d6 bf
       -1.9719759 -8.828028 -1.9431973 -1.6726553
000230 bc a6 e1 3f 86 5d 45 3f cd 1b 5c be c6 97 ae c0
       1.7629008 0.7709583 -0.2149498 -5.456027
000240 60 43 22 bd 92 0b ab be fb 49 d0 3e b9 12 03 c1
       -0.039615035 -0.33407265 0.40681443 -8.192071
000250 10 81 73 3e d6 af 87 bf fe 79 39 3e 0d 4a cd bf
       0.23779702 -1.0600536 0.18112943 -1.6038224
000260 3f 9f 73 c0 cb c7 5e c0 fe 2a 98 bf 5c f6 5e bf
       -3.8065946 -3.4809444 -1.188812 -0.87094665
000270 a1 35 7c 3f 87 55 b2 3f 10 07 be 3d 69 c4 b6 c0
       0.9851933 1.3932351 0.09278691 -5.711476
000280 43 46 00 c0 0c 36 4a c0 cd 03 d3 bc 10 29 24 bf
       -2.0042884 -3.1595488 -0.025758648 -0.64125156
000290 9a 75 21 bd 2d 68 21 bf cd 5f 4a be b7 75 38 3f
       -0.039418794 -0.63049585 -0.19763108 0.7205462
0002a0 92 3e 03 3e d5 6a 08 c1 59 9a 99 3e 7b 11 0a c1
       0.12816837 -8.526082 0.3000057 -8.629268
0002b0 30 32 d6 3f be 90 61 c0 97 3a a6 be 55 ee f6 c0
       1.6734066 -3.5244594 -0.32466576 -7.7165933
0002c0 2b 67 d7 c0 a7 d5 95 3f b3 be c4 c0 9c 6e a3 bf
       -6.7313437 1.1705827 -6.1482787 -1.276813
0002d0 49 da 5a bf d1 17 10 bf 6a 2e 8a 3e 12 b9 03 be
       -0.85489327 -0.5628634 0.26988536 -0.12863567
0002e0 75 34 1c c0 28 47 15 40 ba 82 09 bf 2e 0c 5b c0
       -2.4407017 2.332468 -0.537151 -3.4226184
0002f0 6c a1 59 c0 06 61 9b bf c4 76 24 be 8f 55 c9 bf
       -3.4004774 -1.2138984 -0.1606093 -1.5729235
000300 f9 74 00 bf 8f f7 72 3b 98 38 92 c0 ba d8 a6 3d
       -0.50178486 0.0037073826 -4.5694084 0.08146806
000310 96 b5 ca 3e 30 96 57 c0 3f ac 94 3e de f9 2d c0
       0.39591664 -3.3685417 0.29037663 -2.7183757
000320 62 7a 43 c0 b5 77 9d 3f ee 20 f1 3e 2e 23 89 c0
       -3.0543447 1.2302157 0.47095436 -4.2855444
000330 fa 3d 0b c0 29 3b fc be b2 87 b2 be 06 bd 87 bf
       -2.1756577 -0.49263886 -0.34869152 -1.060456
000340 6a 06 10 c0 f4 42 b3 3f 30 db de 3e 30 d9 01 c1
       -2.2503915 1.4004807 0.43526602 -8.115524
000350 fa f9 e3 be 6f 50 22 bf 42 2e 1b 3e c3 bb 2f c0
       -0.44526654 -0.6340398 0.15154365 -2.745835
000360 41 f5 23 c0 59 e4 84 3f 89 44 cd c0 43 9f 97 be
       -2.561844 1.0382186 -6.414616 -0.29613695
000370 81 ee f8 be 60 d2 cd 3c 5b e5 a2 3e 0f eb 05 c1
       -0.48619464 0.025124729 0.3181561 -8.369887
000380 47 e6 70 bd 56 99 d2 be 67 49 e3 3e 02 62 c1 bf
       -0.05881336 -0.4113261 0.4439194 -1.5108035
000390 21 3d ce 3d 8b ca db be fa 18 a3 be 0b 89 2c c1
       0.10070253 -0.42927966 -0.31854993 -10.783458
0003a0 8c 7a 9f be 33 b0 4f bf 3c 74 11 c0 8d 4c 27 bf
       -0.31148183 -0.81128234 -2.2727194 -0.6535118
0003b0 ae 4e c9 bd 2b a1 2b 3f 93 f4 af bd d5 df 18 c1
       -0.0982946 0.670428 -0.08591571 -9.5546465
0003c0 49 02 25 c0 37 c4 10 3f 1d 92 ab bf 00 e4 0a c0
       -2.5782645 0.565494 -1.3403965 -2.170166
0003d0 2d 98 8b 3d ab a9 b1 3e cd 84 8c 3e f3 0c 0d c1
       0.068161346 0.3469976 0.2744507 -8.815661
0003e0 ae 3e 76 bf 9d f8 1c be f3 c8 f5 be 96 46 1f bf
       -0.9618939 -0.15329213 -0.48004875 -0.6221708
0003f0 27 96 20 c0 2d 9e 06 3f 41 7b de bd 01 a0 87 bf
       -2.5091646 0.5258511 -0.108633526 -1.0595704

l3.bias f4 [106]
000000 76 d4 36 3e 64 bc 82 3d 13 5b 89 3e a8 c6 28 c0
       0.17854485 0.06383589 0.26827297 -2.637125
000010 44 69 5e 3e d7 9b c7 c0 22 49 f5 bf 10 b4 9e bf
       0.21719843 -6.2377734 -1.9162943 -1.2398701
000020 3c b9 2b bd d5 48 5d c0 2d 46 80 c0 51 47 43 c0
       -0.0419247 -3.4575703 -4.0085664 -3.0512278
000030 e0 38 26 be de 44 fc bf 70 f9 c2 3e bf c3 2c c0
       -0.16232634 -1.9708517 0.3808093 -2.6994474
000040 c6 ec ed bf 45 e2 ec bf 6d 2b 2f be 25 a2 e3 3d
       -1.8587883 -1.8506552 -0.1710641 0.11114911
000050 e2 ce 25 3f ef 3c 33 c0 2e 66 f7 bf 51 6c 97 be
       0.64768803 -2.800594 -1.9328058 -0.29574826
000060 06 05 04 c1 02 b9 bc c0 c4 be 3b c0 53 a9 ed bf
       -8.251226 -5.897584 -2.9335184 -1.8567299
000070 4a 27 13 be 4a 72 0c c0 f4 b8 9c bf d7 db 8d be
       -0.14370456 -2.1944757 -1.2243943 -0.27706787
000080 f3 fc 2c c0 68 94 7d c0 52 f3 7e c0 d7 78 c1 c0
       -2.7029388 -3.962183 -3.983601 -6.046001
000090 83 97 38 c0 96 96 7a bf cd a0 b8 bf 69 88 84 c0
       -2.8842475 -0.97886026 -1.4424073 -4.1416516
0000a0 56 49 e7 bf cf 15 54 c0 7b 9a 2a c0 11 92 80 c0
       -1.8069255 -3.313831 -2.6656787 -4.0178304
0000b0 ad fc 9e 3e eb 70 83 c0 ce 76 58 bf 58 73 68 c0
       0.3105215 -4.107534 -0.8455628 -3.63204
0000c0 d1 d8 9d bf ef 7c 40 c0 30 2e ae bf d1 af 73 3e
       -1.2331792 -3.0076253 -1.3607845 0.23797537
0000d0 bc 57 ea bf 90 22 d9 bd 48 95 16 c0 d9 a6 32 bf
       -1.8308024 -0.106022954 -2.3528614 -0.6978584
0000e0 69 42 3a c0 14 8e 78 c0 b0 ac 0a 3e d4 22 a0 bf
       -2.9103034 -3.8836718 0.13542438 -1.2510629
0000f0 a6 06 21 c0 85 0a 76 c0 c2 81 e7 bf be 94 30 3d
       -2.5160308 -3.844392 -1.8086474 0.0431106
000100 fc 2e f3 bf 30 0b 93 c0 ca 41 d7 c0 d2 cc b3 bf
       -1.8998713 -4.5951157 -6.726781 -1.4046881
000110 79 43 e7 bf b9 23 45 3f cd 8f e5 bf b7 99 2c c0
       -1.8067466 0.77007633 -1.793451 -2.696882
000120 7a 41 5b c0 b5 56 6a c0 1b a0 97 be 2a 7e 9a bf
       -3.4258714 -3.6615422 -0.29614338 -1.2069752
000130 cf 99 9b c0 5f 83 37 be 5e 76 74 be ac 9a 4f c0
       -4.8625255 -0.17921208 -0.23873278 -3.2438154
000140 49 39 ba bf b5 9e 8f bf 55 8b 33 c0 f5 23 27 bf
       -1.4548732 -1.1220309 -2.8053792 -0.6528924
000150 52 4d 9f bf f3 41 d9 bf d3 b6 97 c0 3a da db c0
       -1.2445471 -1.6973251 -4.7410674 -6.870389
000160 36 4d 05 c0 3b 92 b5 c0 71 4d ac bf 85 c2 0c c0
       -2.0828376 -5.6741004 -1.3461133 -2.1993725
000170 7f 99 e8 bf 04 6e 75 c0 b5 d7 86 c0 60 dc 1f c0
       -1.8171843 -3.8348398 -4.2138314 -2.4978256
000180 70 f6 af bf 33 df 37 c0 3c 03 0d c0 1d b7 a2 bd
       -1.3747082 -2.872998 -2.2033224 -0.07945082
000190 c8 7e 1a bf e7 df 41 3e 82 e2 fe 3e b4 d1 91 c0
       -0.603497 0.18933068 0.49782187 -4.5568485
0001a0 00 ad 7c c0 db d6 a6 c0
       -3.948059 -5.2137275
