data.pth (torch, 30999 bytes, 6 tensors)

l1.weight f4 [8, 390]
0	0x400c3dee	2.19128
1	0x3f29138f	0.6604547
2	0xbf697499	-0.9119354
3	0x3f9e7a37	1.2381047
4	0x3f8a56aa	1.0807698
5	0xbfdd1588	-1.7272196
6	0x3ef72ee2	0.48277956
7	0x406c45f8	3.6917706
8	0x3e146041	0.14489843
9	0x40719fa5	3.775369
10	0x40046322	2.0685506
11	0x3fca6066	1.5810668
12	0x3d149ca5	0.0362822
13	0x3f89e42e	1.077276
14	0x3f951967	1.1648377
15	0x40353ff9	2.8320296
16	0x3f4d123f	0.80105966
17	0x4094b711	4.647347
18	0x3fa0953d	1.2545544
19	0x3ff7314d	1.931192
20	0x3ed5636e	0.4167742
21	0x3e0cd745	0.13753994
22	0xbf14296f	-0.5787572
23	0xc0451191	-3.0791972
24	0xbf772733	-0.9654419
25	0x3f1bf291	0.60917
26	0x3f32d881	0.6986161
27	0xbfac3e91	-1.3456594
28	0xbf39d6e6	-0.72593534
29	0xbedfbfeb	-0.4370111
30	0x3eebd394	0.4605986
31	0xbf0cbd33	-0.54976195
32	0xbf11b2c4	-0.569134
33	0x3faa5b9e	1.3309209
34	0x409bdbab	4.870565
35	0x3e7f7e10	0.24950433
36	0x3fab55ca	1.3385556
37	0x3f90a9aa	1.1301777
38	0x3fb0fe40	1.3827591
39	0x3fac81e2	1.3477137
40	0xc05babfa	-3.4323716
41	0x400b865e	2.1800761
42	0x4025575d	2.5834572
43	0x3fc1dc36	1.5145328
44	0x3fa6b3cf	1.3023623
45	0x3f2927cd	0.66076356
46	0xc033153e	-2.7981715
47	0xbf1f659e	-0.6226443
48	0x407598f9	3.8374617
49	0xc031fd44	-2.781083
50	0xbe425e93	-0.1898139
51	0xbec3935a	-0.38198358
52	0xbcc2d6b7	-0.023784025
53	0x3e49fee6	0.19726142
54	0xbf74361b	-0.9539506
55	0x3f773be7	0.9657578
56	0x3f4cdb4b	0.80022115
57	0x3f32cfa2	0.6984807
58	0xbefb477d	-0.4907798
59	0x3f9694c0	1.1764145
60	0x404b167c	3.1732473
61	0x3fed0e0d	1.8519913
62	0x3f47b66a	0.78012717
63	0x4059c4c6	3.402635
64	0x3fe70369	1.8047916
65	0x3f910f1e	1.1332738
66	0xbf8e6329	-1.1124011
67	0x4004f928	2.0777073
68	0xbf80ca5a	-1.0061753
69	0x3fa7695e	1.307903
70	0x3f027556	0.5096029
71	0xbdb0c963	-0.086321615
72	0x40485ca0	3.1306534
73	0x4027b5e6	2.6204772
74	0xbfa30278	-1.2735128
75	0xbfc19810	-1.5124531
76	0x4086ecac	4.2163906
77	0x408d6c44	4.419466
78	0x3d3dba0b	0.046320003
79	0x3f039185	0.5139392
80	0x3fbdfb96	1.4842403
81	0xbee3de64	-0.44505608
82	0xc006b740	-2.1049347
83	0xbf38332a	-0.7195307
84	0x3f162df9	0.586639
85	0xbfe2966a	-1.7702153
86	0x3f54abd1	0.8307467
87	0xbf33eb1e	-0.70280635
88	0xbe972362	-0.29519182
89	0xbeb56fc9	-0.35436848
90	0xbfe5fd2a	-1.7967885
91	0xbffcbd1b	-1.974521
92	0x402e2e2d	2.7215683
93	0xbfcb1f62	-1.5868952
94	0x3f04de74	0.51901937
95	0x3e0e5539	0.13899697
96	0x3fc6fd7b	1.5546106
97	0xbf7b0acf	-0.9806337
98	0x3fac4ef2	1.3461592
99	0x401d9d0c	2.4627104
100	0x3f380e18	0.71896505
101	0x3ed43e03	0.4145356
102	0x3f278633	0.65439147
103	0x409e2ec1	4.9432073
104	0xbef53874	-0.47894633
105	0x3fed06a3	1.851765
106	0x3fb144e1	1.3849145
107	0x3e4e6de8	0.20159113
108	0x3f5f7f21	0.8730336
109	0x3f636f69	0.88841873
110	0xc03d1d3e	-2.9549098
111	0x3f4a4db6	0.7902483
112	0x3e6d800c	0.23193377
113	0x4073ebff	3.811279
114	0x3f5f4a79	0.8722301
115	0x3fa490af	1.2856654
116	0x4097e6c4	4.7469196
117	0x408d1b6b	4.409597
118	0x3fd45d56	1.6590984
119	0x3f213058	0.6296439
120	0x3f2f6d86	0.68526495
121	0x40025dd2	2.0369763
122	0x3fbb34c7	1.4625481
123	0x402dfeef	2.718685
124	0x3f3dcee7	0.7414383
125	0x3ef460ce	0.47730106
126	0x4078df07	3.8886125
127	0x3f49fdeb	0.78903073
128	0x3e73f350	0.23823285
129	0x3ef9ce2a	0.48790103
130	0xbecf82ae	-0.40529388
131	0x3f9ab425	1.2086226
132	0x3fa7450b	1.3067945
133	0x3a2b1752	0.00065266073
134	0x3f52249b	0.82087106
135	0x4022ebc5	2.5456402
136	0x3edde980	0.4334221
137	0x3ef5b87e	0.4799232
138	0xbe1e9505	-0.15486534
139	0xbf749178	-0.9553447
140	0x3f80c360	1.0059624
141	0x3ffd1a25	1.9773604
142	0x3ffa06c5	1.9533316
143	0x3ed35ac1	0.41280177
144	0xbf64e83f	-0.8941688
145	0x3e28bbfd	0.16477962
146	0x4008b6a1	2.1361468
147	0x40d9fec1	6.812348
148	0x3e2d3164	0.16913372
149	0xbf0184ea	-0.50593436
150	0xbf76d5d0	-0.9642
151	0xbe7c3505	-0.246296
152	0x403ca003	2.9472663
153	0xbf7559c4	-0.95840096
154	0xbf76882a	-0.9630152
155	0x4000e964	2.014245
156	0x3fbcd7ca	1.4753354
157	0x3d0b59e8	0.03402129
158	0x3f057b60	0.5214138
159	0xbe852f2b	-0.2601255
160	0x4087aafd	4.2396226
161	0xbea0f955	-0.31440225
162	0x3fff2aaa	1.9934895
163	0x3ec31fc9	0.38110188
164	0xbec35ea4	-0.38158143
165	0x403c9fdd	2.9472573
166	0xc07f9af7	-3.9938333
167	0x3f7ca1a9	0.98684174
168	0x3fe1c0b1	1.763693
169	0x3f4529e1	0.7701703
170	0xbe954878	-0.29156852
171	0xbfe25873	-1.7683243
172	0x3f8ab04b	1.083505
173	0xbe93d80c	-0.28875768
174	0x3f4412e8	0.7659135
175	0xbee25d17	-0.44211647
176	0x3fff8f28	1.9965563
177	0x3eae14a8	0.34000134
178	0x3f559f08	0.8344579
179	0x3e8a0403	0.26956186
180	0x3ee78f68	0.45226598
181	0x3facd886	1.3503578
182	0xbf77e22c	-0.96829486
183	0x3fce5207	1.6118783
184	0xbddc42ac	-0.10754904
185	0x3b62bafe	0.003459632
186	0xbded6ce4	-0.11593035
187	0x3e94153a	0.28922445
188	0xbb3af68a	-0.0028528296
189	0xbf2fac70	-0.68622494
190	0x3ef51271	0.47865632
191	0x3fda3140	1.704628
192	0xbeb6692c	-0.35627115
193	0xbeab3a87	-0.3344309
194	0x3f85fa1e	1.0466955
195	0xbf2a8cc0	-0.6662102
196	0x3e7dfe69	0.24804081
197	0x3eba984e	0.36444324
198	0x40248f8f	2.5712621
199	0xbf179b19	-0.59221035
200	0x4023cf27	2.5595186
201	0x3f42b553	0.7605793
202	0x3fb2884d	1.3947846
203	0x40219438	2.5246716
204	0xc047b8e0	-3.1206589
205	0xc01c3fdc	-2.4413977
206	0x3f89b00a	1.0756848
207	0x40220d78	2.532072
208	0x3ee11a5b	0.4396542
209	0x4027ec8c	2.6238127
210	0xbf3524d8	-0.70759344
211	0xbffbe2ed	-1.9678627
212	0x3ef0a74c	0.47002637
213	0x3f0ece60	0.55783653
214	0x409c3ac3	4.882173
215	0x40cac70a	6.3367968
216	0xbf181d7b	-0.59419984
217	0x3f532560	0.82478905
218	0x408c7750	4.3895645
219	0x401c7ad3	2.4449966
220	0xbe8562e4	-0.2605201
221	0x3ff4bbd8	1.9119825
222	0x3e8cefc6	0.27526683
223	0x3fd59133	1.6684936
224	0xbeba27c9	-0.3635848
225	0xbf494c22	-0.78631794
226	0x40449383	3.0715034
227	0x3ff26566	1.8937194
228	0x3dffc39a	0.1248848
229	0x3f7fab10	0.99870396
230	0x408dc699	4.430493
231	0x3fc0df8b	1.506822
232	0xbf811332	-1.0083983
233	0x3ec39fa6	0.3820774
234	0x4033980d	2.8061554
235	0xbf922fa1	-1.1420785
236	0xbf4a35ed	-0.78988534
237	0x4055f1cb	3.3428829
238	0x3f3cfc4a	0.7382246
239	0x3d9a09f1	0.075214274
240	0xbf4da1c5	-0.80324966
241	0x3fa81e7f	1.3134307
242	0xbee487c7	-0.4463484
243	0x404ae3ac	3.170146
244	0x3f85c82f	1.0451716
245	0x3f48c95d	0.78432256
246	0xc0362ca0	-2.8464737
247	0x4097cc60	4.743698
248	0xbe9a9610	-0.30192614
249	0x3f907630	1.1286068
250	0xbfc2ed59	-1.5228683
251	0xbf0dbcd9	-0.55366284
252	0xbfd06065	-1.6279417
253	0xbf46729c	-0.7751863
254	0xbe8ab043	-0.27087602
255	0x3fe8daab	1.8191732

l1.bias f4 [8]
0	0x3f34cee1	0.7062817
1	0x3f9e9773	1.2389969
2	0x3f42aef1	0.7604819
3	0x3f1f17c6	0.6214565
4	0x3f374cc0	0.71601486
5	0x3f9150ed	1.1352822
6	0x3f9ec43e	1.2403638
7	0x3f5fc1b8	0.87404966

l2.weight f4 [8, 8]
0	0x40377d34	2.8670168
1	0x401f41b9	2.4883864
2	0xbfc39681	-1.5280305
3	0xbf63bd31	-0.8896056
4	0x3ff4a076	1.9111469
5	0x3edf26f2	0.435844
6	0xc0123afb	-2.28485
7	0xbe1cca13	-0.1531146
8	0x3fdc1a42	1.7195513
9	0xbfcf0b3b	-1.6175302
10	0xc00d7849	-2.2104666
11	0x400b3209	2.174929
12	0x3fbfc16d	1.4980904
13	0xbefca45f	-0.49344155
14	0x3f873ad8	1.0564833
15	0x3f53aa65	0.82681876
16	0x3f3ed508	0.7454381
17	0x405acea9	3.4188635
18	0xc02557c9	-2.583483
19	0x3f38909c	0.72095656
20	0xbfb6d439	-1.4283515
21	0x3fc3dcdc	1.5301776
22	0x4030eefe	2.764587
23	0xbffb4142	-1.962929
24	0xc0343dc2	-2.8162694
25	0xbfc0e7a8	-1.5070696
26	0xbed06e15	-0.40708986
27	0x40153cff	2.331848
28	0x4008a92b	2.1353252
29	0x4060603d	3.505874
30	0xbf6ce560	-0.925375
31	0x3f8c3e05	1.0956427
32	0x400c7ad1	2.194996
33	0xbefc3129	-0.49256256
34	0x4056d952	3.3570142
35	0x3fb6eb57	1.429057
36	0x3fb734aa	1.4312947
37	0xbfbca7e6	-1.4738739
38	0x3f725e9e	0.94675624
39	0xc031032e	-2.765819
40	0x3f99d1ae	1.2017114
41	0x3fd3f54d	1.6559235
42	0x3fd310be	1.6489484
43	0xbffc5204	-1.9712529
44	0xc0067aba	-2.1012406
45	0x3f203882	0.62586224
46	0xbd818854	-0.06324831
47	0x4059baac	3.4020185
48	0xc006b93e	-2.1050563
49	0x3edb45c5	0.42826667
50	0x3fb45c04	1.4090581
51	0x3d32c1b2	0.043641753
52	0x3f7b9ec7	0.9828915
53	0xbfe61d7e	-1.797775
54	0x4057d7ad	3.3725388
55	0x3f47c53c	0.7803533
56	0x3e6877d7	0.22701965
57	0x3ea8884e	0.32916492
58	0xbf47d3d5	-0.78057605
59	0x3ee90d4e	0.45517963
60	0x3efa25c5	0.4885694
61	0x3f807f83	1.0038913
62	0xbf20be23	-0.62790126
63	0xbf06edfa	-0.52706873

l2.bias f4 [8]
0	0x3f8016fa	1.0007012
1	0xbe8a1fa2	-0.2697726
2	0x3f884a06	1.064759
3	0x3ea1ad8c	0.31577718
4	0x3e3660d3	0.17810373
5	0xbe7a8d8d	-0.2446806
6	0x3f550619	0.8321243
7	0xbe9b542b	-0.30337653

l3.weight f4 [187, 8]
0	0xc02af81e	-2.6713939
1	0xc111a11d	-9.101834
2	0xc107faa9	-8.498696
3	0x3e7a1f3c	0.24425977
4	0xbecfe341	-0.40603068
5	0xbf78ad45	-0.9713939
6	0x3fbea8c7	1.4895257
7	0xc0d3e02c	-6.6211147
8	0xbf30c6c5	-0.690533
9	0xc113d58b	-9.2396345
10	0x3f4e7cc9	0.8065916
11	0xc01af32f	-2.4210927
12	0x3f7d232e	0.98881805
13	0xbfa3cf15	-1.2797571
14	0xc049d43e	-3.1535792
15	0xbf8825c0	-1.063652
16	0xc0a9300e	-5.287116
17	0xbd5365cf	-0.051610764
18	0xc0991065	-4.7832513
19	0xc0179383	-2.3683784
20	0x3ed5ba99	0.41743925
21	0xbf30f999	-0.69130856
22	0x3ede023c	0.4336108
23	0xbea249db	-0.31696972
24	0x3d066367	0.03280964
25	0xbec98117	-0.393563
26	0xbf5fcd25	-0.874224
27	0xbfbcdaae	-1.4754236
28	0xbf6a68c8	-0.91566133
29	0xbf0567b7	-0.5211138
30	0x3f670f5b	0.90257806
31	0xc062f185	-3.5459912
32	0xc0f7c111	-7.7423177
33	0xc0d3ce70	-6.61895
34	0xbf953fdf	-1.1660117
35	0xc0fe11bf	-7.9396663
36	0xc01dc41a	-2.465094
37	0x3f6f35c0	0.9344139
38	0x3f39da1a	0.7259842
39	0xbec720e5	-0.38892284
40	0xbec1a85b	-0.37823758
41	0x3f314a7b	0.69254273
42	0x3e9ebe3a	0.31004506
43	0xc11e6c88	-9.901497
44	0x3e469d8c	0.19396037
45	0xbf413a9e	-0.7548007
46	0xc00c338a	-2.1906457
47	0xc103c158	-8.234703
48	0xbfad40ba	-1.3535378
49	0xbfc28254	-1.5196023
50	0xbfc08de7	-1.5043305
51	0xc0342b40	-2.8151398
52	0x3f117b1e	0.56828487
53	0x3ee7c3ce	0.45266575
54	0xc0dbe510	-6.8717117
55	0xc03429a2	-2.815041
56	0xc0b089f5	-5.5168405
57	0x3f42216d	0.75832254
58	0xc0f7a591	-7.7389607
59	0x3e386428	0.18006957
60	0xbf22d43e	-0.63605106
61	0xc0d1ed92	-6.5602503
62	0xbcfdd96e	-0.030987468
63	0x3f89c148	1.076211
64	0xbffea041	-1.9892656
65	0xc0b73525	-5.7252374
66	0x3fada801	1.3566896
67	0xbf8e5135	-1.1118532
68	0x3f30de5e	0.69089305
69	0xbd9c0fc0	-0.076201916
70	0xc03e9e32	-2.9784055
71	0xc051c2cb	-3.2775142
72	0xc0fd8c39	-7.923367
73	0xbfa511ec	-1.2896094
74	0x3f9b3249	1.2124721
75	0x3e87fc2b	0.26559576
76	0xbfdddc16	-1.733279
77	0xc0f77756	-7.7333174
78	0x3da3ae5b	0.0799224
79	0x3fdce51b	1.7257417
80	0x3dca5843	0.09880116
81	0xbefd91ba	-0.49525243
82	0xc0ffa0d8	-7.9883842
83	0x3f5caf87	0.86205333
84	0xbf3c3b02	-0.7352754
85	0xc0d916de	-6.7840414
86	0x3e5d577b	0.21615402
87	0xbfad69ed	-1.3547951
88	0xbf025b0c	-0.50920177
89	0xc0c8e4e0	-6.277939
90	0xc0f923b3	-7.785608
91	0xbcb5ac5b	-0.022176912
92	0xc0f2bb8a	-7.585393
93	0x3f00fd8e	0.50386894
94	0xc0261b4c	-2.595416
95	0xbf723145	-0.9460643
96	0x3eccf1f1	0.40028337
97	0xbf717261	-0.94315153
98	0x3df14df2	0.11782445
99	0xbd00e1e9	-0.031465445
100	0xbf7e07d0	-0.9923067
101	0xbd7d23db	-0.061801773
102	0xc08c645f	-4.3872523
103	0xbecb9ba9	-0.39767197
104	0xbf73eee8	-0.95286417
105	0x3f77527a	0.96610224
106	0xc0e8b3ce	-7.271949
107	0x3f3557b2	0.7083694
108	0xc0c0e6c2	-6.0281687
109	0xbf718e08	-0.9435735
110	0xc0202f3b	-2.5028827
111	0x3e8fb374	0.280666
112	0x3f43e271	0.765174
113	0xc06540c0	-3.582077
114	0xbf145d44	-0.5795481
115	0xc022b1c9	-2.5421011
116	0xc0f32d93	-7.5993133
117	0xbf01e609	-0.5074163
118	0x3fa12946	1.2590721
119	0xc119eb4e	-9.619947
120	0xc0cc94b9	-6.3931546
121	0x3f1016c7	0.56284755
122	0x3f99ecee	1.202543
123	0xbfbb8914	-1.4651208
124	0xbf381e63	-0.71921366
125	0xc0d0737a	-6.5140963
126	0xbf0d5e24	-0.5522177
127	0xbfc99893	-1.5749687
128	0xc0bffc78	-5.999569
129	0xc0b3cc16	-5.618663
130	0xc097a6e3	-4.739122
131	0xbe9d4d3c	-0.30722988
132	0x3ec990ad	0.3936819
133	0xc01d3771	-2.4565089
134	0x3fbf4404	1.4942632
135	0xc0192f62	-2.393517
136	0xbfad349b	-1.3531679
137	0xbf5c67bb	-0.8609578
138	0x3fb7d8b2	1.4363005
139	0xc0b490f1	-5.642693
140	0xbf03e837	-0.51526207
141	0xc022b935	-2.5425541
142	0xbdba6a66	-0.09102325
143	0xc083af29	-4.115132
144	0xbf965fbf	-1.1747969
145	0xbf00eda9	-0.5036264
146	0x3dd6a214	0.10480133
147	0xbc1e3d0b	-0.009658108
148	0xbdcbac5e	-0.09944986
149	0xbf681275	-0.90653163
150	0x3e178a91	0.14798953
151	0xbfd12795	-1.6340204
152	0xbf62e9cb	-0.8863799
153	0x3fa1a84b	1.2629484
154	0xc0e61e1e	-7.1911764
155	0xbd54b7df	-0.051933166
156	0xbf42bdf2	-0.76071084
157	0xc0d1b42d	-6.553244
158	0xbf165ba5	-0.5873359
159	0x3f31e714	0.6949322
160	0xbe0c3791	-0.13693072
161	0x3facb7ce	1.3493593
162	0x3edf6d17	0.43637916
163	0xc0ae12d5	-5.439799
164	0xbf5b7294	-0.8572171
165	0xbffe505c	-1.9868274
166	0xbf2b20a5	-0.66846687
167	0xc0a3c802	-5.118165
168	0xc102c028	-8.171913
169	0x3fc8d117	1.5688809
170	0xc0b20ef2	-5.5643244
171	0xbf8fa1df	-1.1221274
172	0xbf5248bd	-0.8214224
173	0xbfa16359	-1.2608443
174	0x3e5a91c3	0.21344666
175	0xbf1c0803	-0.60949725
176	0x3eaf4eb1	0.34239724
177	0xbfb691b0	-1.426321
178	0xbe3a6893	-0.18203954
179	0x3e356f8d	0.17718334
180	0xbfa928bd	-1.3215557
181	0x3e48ca53	0.1960843
182	0xc0f8e576	-7.7780104
183	0xbf17af2d	-0.5925167
184	0x3f892019	1.071292
185	0x3fa77305	1.3081976
186	0xc0832b32	-4.099023
187	0xbfb6e654	-1.428904
188	0xc0b71f45	-5.722567
189	0xbf0b89d2	-0.5450717
190	0x3dc6afab	0.09701475
191	0xc09f3f40	-4.976471
192	0xc00d1952	-2.2046704
193	0xc10f589e	-8.959135
194	0x3fc9920f	1.5747699
195	0xbead62c1	-0.33864406
196	0xbf8de169	-1.1084415
197	0xc050cf8d	-3.262668
198	0x3daee4a8	0.085397065
199	0xc033a961	-2.807213
200	0x3e188495	0.14894326
201	0xc03213d8	-2.7824612
202	0x3f8834d6	1.0641124
203	0xbd7a7a81	-0.061151985
204	0xbfe8166a	-1.813184
205	0xc0e4472c	-7.133688
206	0x3f0ca066	0.5493225
207	0x3c31fa32	0.010862874
208	0xbed03105	-0.406624
209	0xbbd66ae1	-0.0065435027
210	0xbe69be40	-0.22826481
211	0x3eed34b4	0.46329272
212	0xc0599914	-3.3999681
213	0xbef5dcab	-0.4801992
214	0xbcf791df	-0.030220924
215	0xbecc1467	-0.39859316
216	0x3fee899c	1.8635745
217	0x3f1d9d7d	0.61568433
218	0xc145643b	-12.33697
219	0x3eb946e9	0.36186913
220	0xbfc70868	-1.554944
221	0xbf984ad0	-1.1897831
222	0xbe2c7db5	-0.16844828
223	0xc0ef35cd	-7.4753175
224	0x3f0dffc0	0.5546837
225	0xc0f3f9fb	-7.624265
226	0xbea6011b	-0.32422718
227	0xbfa4c530	-1.2872677
228	0xc0d7d019	-6.7441525
229	0x3f3bdb3e	0.7338141
230	0xc0c1d77a	-6.0575533
231	0xbe772451	-0.24134947
232	0xbf0636be	-0.5242728
233	0xc11a7781	-9.654176
234	0x3f4d3bc7	0.8016934
235	0xbd313d50	-0.043271363
236	0xbec9c017	-0.39404365
237	0xbf5b986d	-0.8577946
238	0xc0ba7505	-5.8267846
239	0x3f42e130	0.7612486
240	0xbf0207db	-0.50793236
241	0xbf3128bf	-0.692028
242	0x3eff9257	0.49916336
243	0xbf4bf0a6	-0.79664075
244	0x3f3d30ff	0.7390289
245	0xc00ab324	-2.1671839
246	0xc0ad93a3	-5.424272
247	0xbfac3d93	-1.3456291
248	0x3f348b6b	0.70525235
249	0xbfc39ecf	-1.528284
250	0x3f1eef7b	0.6208417
251	0xbe6a1ddc	-0.22862953
252	0xbfb37ee8	-1.4023104
253	0xbf265c05	-0.6498416
254	0xbfcbd2ba	-1.5923684
255	0xbca92c72	-0.020651076

l3.bias f4 [187]
0	0xbfe76af7	-1.8079518
1	0xbfca2895	-1.5793635
2	0xbe84b051	-0.2591577
3	0xc00000cc	-2.0000486
4	0x3d1496c8	0.03627661
5	0xc05cdde0	-3.4510422
6	0xbf94edc8	-1.1635065
7	0xbf8367ca	-1.0266049
8	0xbfb24e6f	-1.3930186
9	0xc016adc6	-2.3543563
10	0xbfb4e0d5	-1.4131113
11	0xc058135d	-3.3761818
12	0xbf0e62af	-0.5561933
13	0xbf872991	-1.055956
14	0xc0511982	-3.2671819
15	0xc028a74c	-2.635211
16	0xc02ffbc6	-2.749742
17	0xc01ff1af	-2.4991262
18	0xbbb78f27	-0.005601782
19	0xbfd5b40c	-1.6695571
20	0xc08787e3	-4.2353377
21	0xbfefbe76	-1.8729999
22	0x3e17a00d	0.14807148
23	0xbee46eb6	-0.44615716
24	0x3f9c9b26	1.2234848
25	0x3f6583a0	0.8965397
26	0xbee4ce08	-0.4468844
27	0xc017edfd	-2.3739007
28	0xbfae98c5	-1.3640372
29	0xc006f4ee	-2.1086993
30	0xc0486fd5	-3.1318257
31	0x3f8c9239	1.0982124
32	0xbf49570d	-0.78648454
33	0xc00ec7fa	-2.2309556
34	0xc045cc68	-3.090601
35	0xbff097c3	-1.8796314
36	0xbf7cd120	-0.987566
37	0x3da5783c	0.080795735
38	0x3f9415d2	1.1569159
39	0xbf04e8e7	-0.5191788
40	0xc054f6e9	-3.3275702
41	0xbf1163f1	-0.56793123
42	0xc03a8c17	-2.9148004
43	0xc091bbd0	-4.5541763
44	0xbf256c27	-0.6461815
45	0xbe199e78	-0.15001857
46	0x3e31f83a	0.17379847
47	0xbfcf0e47	-1.6176232
48	0x3ff351bc	1.9009318
49	0xc0725453	-3.7863967
50	0xbeb9083c	-0.36139095
51	0x3dc912b7	0.09818023
52	0x3f4d9245	0.80301315
53	0xc02145c9	-2.5198843
54	0xbfd0bbf6	-1.6307361
55	0xc01ca73a	-2.4477067
56	0xbd4ba9cb	-0.049722474
57	0xc0065321	-2.0988238
58	0xc08fd986	-4.495303
59	0xbfdc30d9	-1.7202407
60	0x3fe56dfc	1.792419
61	0xbe7d02ed	-0.24708147
62	0xbeb379c1	-0.35053828
63	0xc0593164	-3.3936396
64	0xbd82d25f	-0.06387781
65	0xc0357201	-2.8350832
66	0xbf76fb33	-0.9647705
67	0xbf51c9c5	-0.819485
68	0xbffab5ec	-1.9586768
69	0xbf74ac42	-0.95575345
70	0xbf9914d0	-1.1959476
71	0x3e041ef9	0.1290244
72	0xbf132df8	-0.5749202
73	0xbf1d1d60	-0.6137295
74	0x3ef1bb39	0.47213152
75	0xc0859131	-4.1739736
76	0xbfeb2f88	-1.837388
77	0xbf45cfd3	-0.7727024
78	0xbfcbe8c3	-1.5930408
79	0x3e58c62c	0.21169347
80	0xbf69f4cc	-0.91389155
81	0xbfd2c10c	-1.6465163
82	0xbe74445e	-0.23854205
83	0xc035124e	-2.8292422
84	0xc02ffc90	-2.7497902
85	0xc0b48ca6	-5.642169
86	0xbedd2345	-0.4319097
87	0xc094c722	-4.649308
88	0x3e9eedac	0.31040704
89	0xbffc7729	-1.9723865
90	0xc013defd	-2.3104851
91	0x4026948f	2.6028173
92	0xc0108dca	-2.258654
93	0xc0050558	-2.0784512
94	0x3f9199d9	1.1375076
95	0x3e8a8076	0.27051133
96	0xbfae5fd2	-1.3622992
97	0xbff71bea	-1.9305394
98	0xc0151187	-2.3291948
99	0xbf369b12	-0.7133037
100	0xbe881ccb	-0.26584467
101	0xbf59846c	-0.84967685
102	0xbf3c8bfa	-0.7365109
103	0x3e17a88a	0.14810386
104	0xbfb04a83	-1.3772739
105	0xc06cf3f3	-3.7023895
106	0xc054a9f7	-3.3228738
107	0xbc0f9a1a	-0.008764768
108	0xbd536b09	-0.05161575
109	0xc05af949	-3.4214652
110	0xc0118d73	-2.2742584
111	0xc01fe0ac	-2.498088
112	0xbf3472c1	-0.704876
113	0xbd10a364	-0.03531207
114	0xc09a19eb	-4.815664
115	0xbd82e436	-0.06391184
116	0xbf7cf192	-0.9880611
117	0xc0b2be2b	-5.585714
118	0xc00b38b6	-2.1753364
119	0xbeb5b391	-0.3548856
120	0xbea6df06	-0.32592028
121	0xbf1b11e7	-0.6057419
122	0xbf48f034	-0.7849152
123	0xbf8afbdf	-1.0858115
124	0xbfb96ada	-1.4485734
125	0xc058cf4c	-3.3876524
126	0x3e61d395	0.22053368
127	0xbfc36ee9	-1.5268222
128	0xc064ee58	-3.5770473
129	0xc011301f	-2.268562
130	0xc016d3f8	-2.3566875
131	0xc08dc84a	-4.4306993
132	0x3e1b05d8	0.15138948
133	0xbec49db9	-0.38401583
134	0xbfcc0287	-1.5938271
135	0x3eb1ff5f	0.34765145
136	0xbfd7fd68	-1.6874208
137	0xc0090a2d	-2.141246
138	0xbe58f5a0	-0.21187449
139	0xc054d7fa	-3.3256822
140	0xc04692d4	-3.1027117
141	0xc04e57ca	-3.2241082
142	0x3fa19f89	1.2626811
143	0xbfc48ed3	-1.5356086
144	0x3eabc3ca	0.33547813
145	0xbf6a0a31	-0.914218
146	0xc0528bd0	-3.2897835
147	0x3f27aefb	0.65501374
148	0xbfa9db6a	-1.3270085
149	0xbf833178	-1.0249472
150	0x3e1dddbc	0.15416616
151	0xbd0a30bd	-0.033737887
152	0xbda54694	-0.08070102
153	0xbfde8038	-1.7382879
154	0xbf34894e	-0.7052201
155	0xbeac8028	-0.33691525
156	0xc026b8a7	-2.6050203
157	0xc086ca31	-4.2121816
158	0xbf88d99b	-1.0691408
159	0xbd08c24d	-0.033388425
160	0x3eaa310f	0.33240554
161	0xbfb90100	-1.445343
162	0xc019d58e	-2.4036593
163	0xbfab3cff	-1.337799
164	0xc046a7c4	-3.1039896
165	0xbdf95fa2	-0.12176444
166	0xc0106a54	-2.2564898
167	0xbea5f9a6	-0.3241703
168	0xc00eb6b7	-2.229902
169	0xc05214d4	-3.2825212
170	0xbeb0366f	-0.3441653
171	0xc0575c9f	-3.3650281
172	0xc01b8703	-2.4301155
173	0xbfc7164b	-1.5553678
174	0xc00380a6	-2.054727
175	0xbf729233	-0.9475433
176	0xc011c99f	-2.277931
177	0xc0050e62	-2.0790029
178	0xc02b0340	-2.6720734
179	0xc0704133	-3.7539794
180	0xc01e37a4	-2.472146
181	0xbfdd3d08	-1.728425
182	0xbf1251c8	-0.5715604
183	0xbe99d543	-0.30045518
184	0xbf839c0d	-1.0281998
185	0xbd77dae5	-0.06051149
186	0xc00400c2	-2.0625463
