data.pth (torch, 30999 bytes, 6 tensors)

l1.weight f4 [8, 390]
0	0xbe46dc90	-0.19420075
1	0xbea0e673	-0.3142582
2	0xbfc5fe27	-1.5468186
3	0xbf07f587	-0.5310902
4	0x3f70c0f7	0.9404444
5	0xbf709e7d	-0.93991834
6	0x3e3ac839	0.18240441
7	0xbfc5fd78	-1.5467978
8	0xbf8f418c	-1.1191878
9	0x3f5d9a99	0.8656402
10	0xc0417cd9	-3.023245
11	0xbe4d781b	-0.20065348
12	0xbedfdee9	-0.43724754
13	0x3fcfb22e	1.6226251
14	0x404acf36	3.1688972
15	0xc00ff736	-2.2494636
16	0x3fd0c800	1.6311035
17	0x4062c73c	3.5434103
18	0x3fe0676f	1.7531565
19	0x3f5f5055	0.8723195
20	0x3f80a6c0	1.0050888
21	0xbf217c81	-0.630806
22	0x3f83cba8	1.0296526
23	0xbfa70793	-1.3049186
24	0xbfe6b93c	-1.8025279
25	0xbfac4447	-1.3458337
26	0xbf1ed2a3	-0.62040156
27	0x3e89f67d	0.26945868
28	0x3fcad1cd	1.5845276
29	0x3e9c10ba	0.3048151
30	0x3ed24b9c	0.4107331
31	0x3f060ac0	0.52360153
32	0x3ede6de6	0.4344322
33	0x3f9e2b80	1.2357025
34	0xbf3518fb	-0.7074124
35	0xbf14e4e0	-0.58161736
36	0xbe9bb249	-0.30409458
37	0x3ea3fdd4	0.32029593
38	0xbefe3aa4	-0.49654114
39	0x3f19fe39	0.6015354
40	0xbee89f08	-0.4543383
41	0xc02a6e3f	-2.662979
42	0x3fee9dec	1.8641944
43	0x401233fe	2.2844234
44	0xbe340ec8	-0.17583764
45	0xbe598752	-0.21243027
46	0x404539b8	3.0816479
47	0x4008a186	2.1348586
48	0x3ecccaf8	0.39998603
49	0x40d01cda	6.503522
50	0x3f91db89	1.1395122
51	0x3fad338a	1.3531353
52	0x3ff7bb03	1.9353946
53	0x3cc29117	0.023750825
54	0x4074196f	3.8140523
55	0x3cf9183e	0.030407067
56	0xbe90236f	-0.28152034
57	0x3eeb3e5b	0.4594601
58	0x3f620b8b	0.88298863
59	0xbf76e011	-0.9643565
60	0x3f9dace3	1.2318386
61	0xbf9b3bd6	-1.2127635
62	0xbe2fe1e6	-0.17176017
63	0xbf1118f8	-0.56678724
64	0xbf79f6ff	-0.9764251
65	0x3dd3ded0	0.103452325
66	0x407432a1	3.8155901
67	0x3f3c9867	0.7367005
68	0x40423c33	3.0349243
69	0x401ac3e1	2.4182055
70	0x3e71c8d7	0.2361177
71	0x3f5532b9	0.8328052
72	0xbf43a7cf	-0.7642793
73	0x4003a0de	2.0566936
74	0x4016a175	2.3536046
75	0x3fca23e6	1.5792205
76	0xbd8649e3	-0.065570615
77	0x40af773b	5.4833045
78	0x40116a8c	2.272128
79	0x3e59d088	0.21270955
80	0x3fbedf4e	1.4911897
81	0x4000c32d	2.0119126
82	0xbe281ddd	-0.16417642
83	0x3f08edd8	0.5348792
84	0x3fbe1fe2	1.485348
85	0x3f2bc789	0.6710134
86	0x3f1ddbb5	0.6166337
87	0x40740ad1	3.8131602
88	0xbc91afe1	-0.01778406
89	0x3f18b23d	0.5964697
90	0xc03ac50f	-2.9182775
91	0xc026b5f1	-2.6048548
92	0x40824378	4.070736
93	0x3e36ba8a	0.17844597
94	0x4040b2e7	3.0109193
95	0x3ebc90b5	0.36829153
96	0x3e68a25a	0.22718182
97	0x3f52eaa7	0.823893
98	0xbe459152	-0.19293717
99	0x409e77d4	4.9521275
100	0xbee19bcb	-0.44064173
101	0x3eeb59c1	0.45966914
102	0xbe1bf552	-0.15230301
103	0xbf2d3f92	-0.67675126
104	0x3fe2d7d6	1.7722118
105	0xbf800d53	-1.0004066
106	0x402c6931	2.6939204
107	0x3ff4e996	1.9133785
108	0x3fe4450d	1.7833573
109	0x3dd82d61	0.1055553
110	0xc07b241b	-3.9240787
111	0x3ea695ec	0.32536256
112	0xbeed9fa4	-0.4641086
113	0x402ade3c	2.669814
114	0x3f88d8e8	1.0691195
115	0x3fa7d8cb	1.3113035
116	0x3f427ba9	0.7596994
117	0xbfac82d1	-1.3477422
118	0x3f8a9898	1.0827818
119	0x400699aa	2.103129
120	0x3f2b6673	0.669532
121	0x3fd5b086	1.6694496
122	0x400a8807	2.1645525
123	0xbf7db4ed	-0.99104196
124	0xbef79c7e	-0.48361582
125	0x400a496c	2.1607313
126	0x4051063a	3.266005
127	0xbe5463b4	-0.20741159
128	0xbf20e54d	-0.62849885
129	0x409772c5	4.73276
130	0x3f0faea0	0.5612583
131	0xbdb5714c	-0.088595
132	0x3fb543e8	1.4161348
133	0x3faa3cd1	1.329981
134	0x3f094936	0.53627336
135	0x3f9540cb	1.1660398
136	0xbf1654d2	-0.58723176
137	0xbf9729c0	-1.1809616
138	0x3fab6926	1.3391464
139	0x4074ae46	3.8231368
140	0x3fca75fd	1.5817257
141	0x40289a8f	2.6344335
142	0xbf7c0ab7	-0.9845385
143	0x3f4b4e29	0.7941614
144	0x40486db9	3.131697
145	0xbec00277	-0.3750188
146	0xbfb29047	-1.395028
147	0xbff13e14	-1.884707
148	0x3f06c638	0.5264621
149	0xbe96e98c	-0.29475057
150	0x404a3c74	3.1599398
151	0x3fcda2a5	1.606526
152	0xbeda804d	-0.4267601
153	0x404a8f9e	3.1650157
154	0x40774f0e	3.8642
155	0x3f63f175	0.8904031
156	0x3fc5e258	1.54597
157	0xbfe5b420	-1.7945595
158	0xbd278272	-0.040895887
159	0x401811bc	2.3760824
160	0x40acbb74	5.3978825
161	0xbf179e8b	-0.5922629
162	0x3ee5c3b7	0.4487588
163	0xbd1077bf	-0.03527045
164	0xbe123497	-0.14277874
165	0x3f4dbb37	0.8036379
166	0xc02fbea2	-2.7460103
167	0x4043b064	3.057641
168	0x4068bd5a	3.636557
169	0x400ce97d	2.201751
170	0x408c9db2	4.39425
171	0x400e8839	2.2270644
172	0xc015e369	-2.342005
173	0x3f92e76a	1.1476872
174	0x3f05e8d6	0.52308404
175	0x3fadcc3f	1.3577956
176	0xbed790b3	-0.42102584
177	0x3f11ca67	0.56949466
178	0x3fda15d8	1.7037916
179	0x3fedc793	1.857653
180	0xbbe5e65e	-0.0070159873
181	0xbe5de706	-0.2167016
182	0xbf32de0a	-0.69870055
183	0x3fe2f75c	1.7731738
184	0x3fab4c1f	1.3382605
185	0xbf0400d9	-0.51563793
186	0x3e516470	0.2044847
187	0x3f41001c	0.7539079
188	0xbe253d7f	-0.1613674
189	0x3f2dd105	0.67897063
190	0xc0679826	-3.6186614
191	0x40282134	2.6270266
192	0xbf33e306	-0.70268285
193	0x3f5e6c4c	0.86884
194	0x3fc5eee1	1.5463525
195	0xc00cd21c	-2.200324
196	0xbd23254c	-0.03983049
197	0x3f9481e7	1.1602143
198	0x407ea24d	3.978656
199	0x3f62f723	0.8865835
200	0xbf442988	-0.7662587
201	0x3f9410b8	1.1567602
202	0x3faa4c0d	1.3304459
203	0xbf627ccb	-0.8847167
204	0x3f3d258a	0.73885405
205	0x3eede381	0.46462634
206	0x40896353	4.2933745
207	0x40216e13	2.5223434
208	0xbeb5a7d4	-0.35479605
209	0x40039f5e	2.056602
210	0x4007ee0b	2.123904
211	0x3fbe1a72	1.485182
212	0x400870b1	2.1318781
213	0x3e80845a	0.25100976
214	0x401de322	2.466988
215	0x3e3e5bb3	0.18589668
216	0xbe773c83	-0.24144177
217	0x3f1fa827	0.62365955
218	0x40696371	3.6466944
219	0x4063a860	3.5571518
220	0xbfcfaafe	-1.6224058
221	0xbf8217d5	-1.0163523
222	0xbf9db5bb	-1.2321085
223	0xbf7e5dc1	-0.9936181
224	0xc01cc8db	-2.4497592
225	0xbed9ebdd	-0.42562762
226	0x400b442d	2.1760361
227	0xbf4b814b	-0.7949416
228	0xbe41b9f3	-0.1891859
229	0x3c477897	0.012174747
230	0x407b6f82	3.928681
231	0x3fab56fc	1.338592
232	0x4080c7f8	4.0244102
233	0xbf5a446c	-0.85260653
234	0xbe8379b1	-0.2567878
235	0x40aaced0	5.3377457
236	0x3f0217f0	0.50817776
237	0xbeea6b58	-0.45785022
238	0x3e339705	0.17538078
239	0x3e8e5a3b	0.27803215
240	0x3f0173b0	0.5056715
241	0x3f32fb3b	0.699146
242	0xc03cdf37	-2.951124
243	0xbeefb321	-0.46816352
244	0x3f2e547f	0.6809768
245	0xbfdda7a7	-1.7316788
246	0xc0384f31	-2.8798335
247	0xbf6d0488	-0.9258504
248	0x3f48dc4c	0.78461146
249	0x3d8e7009	0.06954963
250	0x3fb1d832	1.3894103
251	0x3edf0a52	0.4356256
252	0xbfdef64a	-1.7418911
253	0xbcdf6671	-0.027270528
254	0x3f59d6e2	0.8509351
255	0xbf7e9e71	-0.9946051

l1.bias f4 [8]
0	0x3fe2b537	1.7711552
1	0x3f2c52c4	0.6731379
2	0x3f439eb7	0.76414055
3	0x3f7f268d	0.996682
4	0x3f240324	0.6406729
5	0x3efc0aec	0.49227083
6	0x3f6bb0cb	0.9206664
7	0x3f06667d	0.52500135

l2.weight f4 [8, 8]
0	0x400d4f80	2.2079773
1	0x4039f168	2.9053593
2	0xc02bb655	-2.6830037
3	0xbee285b8	-0.44242644
4	0xbf9394d6	-1.1529796
5	0xbef24b3c	-0.47323024
6	0x3f05bcbd	0.52241117
7	0x3e97d98d	0.29658166
8	0x3fa3b6e6	1.2790191
9	0x3eb9456f	0.36185786
10	0x401318f3	2.2983978
11	0xbff90d0d	-1.9457108
12	0x3ffde38d	1.9835068
13	0x3ed43d54	0.4145304
14	0xbff9553a	-1.9479134
15	0x3f21e80b	0.63244694
16	0xbf9a450f	-1.2052325
17	0x3dacb065	0.08432082
18	0xbfad32df	-1.353115
19	0x4000d57d	2.0130303
20	0x4004f854	2.0776567
21	0x3f683115	0.90699893
22	0x3e90179f	0.2814302
23	0xbd7d56b6	-0.061850272
24	0x3fb7a9a2	1.4348643
25	0xbe716e15	-0.23577149
26	0x3fdc79d9	1.7224685
27	0x404ccda4	3.2000513
28	0x3ea1b252	0.3158136
29	0xc0661837	-3.595228
30	0x3fe198b0	1.7624722
31	0xc015f88c	-2.343295
32	0xbedf41f5	-0.4360501
33	0x3fcb7043	1.5893635
34	0xbf851b2d	-1.0398918
35	0xbf94335a	-1.1578171
36	0x3ff4f1d2	1.9136298
37	0x3f26c9fa	0.6515194
38	0x40403ec3	3.0038307
39	0xbfc1ff62	-1.5156062
40	0xbef6c36d	-0.48195973
41	0xbe39f127	-0.18158399
42	0x3fcae669	1.5851566
43	0x3f1d392c	0.6141536
44	0xc00f50f5	-2.2393162
45	0x4053f10a	3.3115869
46	0x3fee74b5	1.8629366
47	0x404f2a4f	3.2369573
48	0x4029ed8b	2.6551235
49	0xc01ac278	-2.4181194
50	0xbff3ff6a	-1.9062321
51	0xbf0a7df9	-0.5409847
52	0x403c67e0	2.94384
53	0xbe6be909	-0.23038115
54	0xbeccba26	-0.3998577
55	0x3fca19e0	1.5789146
56	0x3ea0b739	0.31389788
57	0x405cf015	3.4521534
58	0x3f6ee59d	0.9331911
59	0xbef79e1d	-0.48362818
60	0x3f85e5da	1.046077
61	0xc002d819	-2.0444396
62	0xbf3bf835	-0.7342561
63	0x3f91e3fe	1.1397703

l2.bias f4 [8]
0	0x3ffa1ae5	1.9539458
1	0xbeb2ea73	-0.34944496
2	0xbe2dd170	-0.16974425
3	0x3ffa8586	1.9571998
4	0xbe90d52d	-0.2828764
5	0xbf9a8cbe	-1.2074201
6	0x3fa25ced	1.2684609
7	0xbf91572f	-1.1354731

l3.weight f4 [187, 8]
0	0x3f41cd95	0.7570432
1	0xc05f60f8	-3.4902935
2	0xbf601e7e	-0.8754653
3	0xc0818def	-4.048576
4	0x3fd0a3b8	1.6299963
5	0xbfa70dee	-1.3051126
6	0xc0cc013c	-6.3751507
7	0xbf1326db	-0.57481164
8	0x3e5dcb91	0.21659686
9	0x3dec6aaf	0.11543786
10	0xc09d90cb	-4.923925
11	0xbfd40ad3	-1.6565803
12	0x3f58609a	0.845224
13	0xbfc0ef31	-1.5072995
14	0xc0ec0660	-7.375778
15	0x3f12fefc	0.57420325
16	0xc0a431ca	-5.131078
17	0x3e942b44	0.2893926
18	0x3e55d225	0.20880945
19	0xc046c6f8	-3.105894
20	0xbea8f57b	-0.32999787
21	0xbe849466	-0.2589447
22	0x3ed08c19	0.40731886
23	0xbf2c8de2	-0.67403996
24	0xc0c7f0a8	-6.248127
25	0xbf21f0e5	-0.632582
26	0x3df5f332	0.120092764
27	0xbd140e7e	-0.036146633
28	0x3d89ea75	0.06734172
29	0xc0bca20d	-5.8947816
30	0x3cfbfd2b	0.030760368
31	0xbf2fdf5e	-0.68700206
32	0xbfe34377	-1.7754964
33	0xbf392fbb	-0.72338456
34	0xc00de9cd	-2.217395
35	0x3e4f95be	0.20271966
36	0x3fbaed44	1.4603658
37	0xbfba0524	-1.4532819
38	0xbef4b638	-0.47795272
39	0xbfec81cc	-1.8477111
40	0xbeaeb438	-0.3412187
41	0xc02eb445	-2.7297528
42	0x3f20fc22	0.62884724
43	0xc0ff5f4f	-7.9803843
44	0xbe34a453	-0.1764081
45	0xbeaa000f	-0.3320317
46	0x3e92f1a9	0.28699997
47	0x3dc1c761	0.09461857
48	0xc04bb166	-3.1827025
49	0xbee96de9	-0.45591667
50	0x3f8c8f95	1.0981318
51	0xc0c2988e	-6.0811224
52	0xc07024b7	-3.752241
53	0x3df17731	0.11790312
54	0x3f80820d	1.0039688
55	0xc05926ff	-3.3930051
56	0xc09e760c	-4.95191
57	0x3e5b1c6d	0.21397562
58	0xc0bc95eb	-5.8933005
59	0xbef59ba1	-0.47970298
60	0xbfcd9f03	-1.6064152
61	0x3f407c6c	0.7518985
62	0xc0d32b90	-6.5990677
63	0xc016daa9	-2.357096
64	0x3f034003	0.5126955
65	0xc0cd1e03	-6.4099135
66	0xbeffeeef	-0.4998698
67	0xbe0dd2f0	-0.13849998
68	0x3faaaac5	1.3333365
69	0xc0262ac8	-2.5963612
70	0xc0d8cbdc	-6.774885
71	0xbec92667	-0.3928711
72	0x3edbf3c2	0.4295941
73	0xbf4afd87	-0.792931
74	0xc05da355	-3.463094
75	0xbf86dd99	-1.0536376
76	0x3fcb273e	1.5871351
77	0xc0295bf1	-2.6462367
78	0xbcae0ddc	-0.021246843
79	0xbdec0ecd	-0.115262605
80	0x3f5fe877	0.8746409
81	0xbe7a5d01	-0.2444954
82	0xc0fe81a5	-7.9533257
83	0xc0456743	-3.0844276
84	0xbfe24c2d	-1.7679497
85	0x3dd3f1cc	0.103488535
86	0x3f9c45f5	1.2208849
87	0xc0959988	-4.6749916
88	0xc0b10793	-5.5321746
89	0xc0a2a488	-5.0825844
90	0x401a51a7	2.4112337
91	0xbd426012	-0.0474549
92	0xc0a8e22d	-5.2776093
93	0xbf8b9e06	-1.09076
94	0xc05343c2	-3.3010106
95	0x3fa5b9dd	1.2947346
96	0xbfcb963e	-1.5905225
97	0xbd87052a	-0.06592782
98	0xbdbc3ce7	-0.09191304
99	0x3defabe4	0.117027074
100	0xc16880f9	-14.531487
101	0x3e741392	0.2383559
102	0xbec89078	-0.3917272
103	0xbf8ec93b	-1.1155161
104	0xbeb4c8d2	-0.35309464
105	0xc0db12e3	-6.8460555
106	0xc061cd45	-3.5281537
107	0xbf93dee4	-1.1552396
108	0x3f917596	1.1364009
109	0xbe815dcf	-0.25266883
110	0xc018199e	-2.3765635
111	0x3f4197d2	0.75622284
112	0xbe0cb19d	-0.13739629
113	0xc0097c26	-2.1482024
114	0xc02ed572	-2.7317777
115	0x3cd051c3	0.025429612
116	0x3fa781ba	1.3086464
117	0xc082b544	-4.084627
118	0x3f397236	0.724399
119	0xc0360d1f	-2.8445508
120	0xc085ed3a	-4.1852083
121	0x3f10cb38	0.5656009
122	0xbf925e33	-1.1434997
123	0xbf581943	-0.84413546
124	0xbf92f8ac	-1.1482139
125	0xc0e8718a	-7.2638597
126	0x3f202313	0.6255352
127	0xbed3cc26	-0.4136669
128	0xc04aef02	-3.1708379
129	0xc0b044e2	-5.5084085
130	0x3fced76f	1.6159495
131	0x3f161d66	0.5863861
132	0x3e2b475c	0.1672644
133	0xc044bf7d	-3.0741875
134	0xbfad13c2	-1.3521655
135	0xc0eb63f4	-7.3559513
136	0x3f39eb14	0.72624326
137	0x3e957697	0.2919204
138	0xbf786da0	-0.97042274
139	0xc0b00d5c	-5.501631
140	0xbf53e37b	-0.8276898
141	0xc02208eb	-2.5317943
142	0x3f653508	0.89534044
143	0xc0cfeb78	-6.4974937
144	0xbaa9d8be	-0.0012958271
145	0xbfdf61c0	-1.7451706
146	0xbea6e88c	-0.32599294
147	0x3d5b4ea1	0.053541783
148	0x3dccebe6	0.100059316
149	0xbf03faaf	-0.5155439
150	0xbe986020	-0.29760838
151	0xbf1075dc	-0.5642984
152	0xc0b96604	-5.793703
153	0x3f3aead0	0.73014545
154	0xc052b605	-3.2923596
155	0xc0a254a6	-5.072833
156	0xbfe484ce	-1.7853029
157	0x3f5603d4	0.8359959
158	0xbfa1d9c3	-1.2644581
159	0xc0183dab	-2.378764
160	0x3ec009a0	0.37507343
161	0xbf86effd	-1.0541989
162	0xbf499c7b	-0.78754395
163	0xc0ea5e0a	-7.3239794
164	0x3d8d1b32	0.06889953
165	0xbf66ad16	-0.9010786
166	0xbf3800e3	-0.71876353
167	0x3f53b782	0.82701886
168	0x3f101d8b	0.5629508
169	0xbfa05331	-1.2525388
170	0xbcccf6d6	-0.025020044
171	0xc110c3ed	-9.047833
172	0x3f66b0a5	0.9011329
173	0xbf70061e	-0.93759334
174	0xc0485745	-3.1303265
175	0xbecdf9db	-0.40229687
176	0xc00663e9	-2.099848
177	0xbea659a3	-0.32490262
178	0xbef1e27e	-0.47243112
179	0x3ec44ef5	0.3834149
180	0xbfd1302e	-1.6342828
181	0x3e23433e	0.1594362
182	0xbf276ea3	-0.65403193
183	0xbfa66085	-1.2998205
184	0xbfa0c8d7	-1.2561291
185	0xc00a07dc	-2.1567297
186	0xbe52c43b	-0.20582668
187	0xbfce0424	-1.6095014
188	0x3f21803e	0.6308631
189	0x3ddae03e	0.10687302
190	0xc09749d6	-4.727763
191	0xc09cf935	-4.905421
192	0x3f19ea87	0.60123485
193	0xc0133cf4	-2.3005953
194	0xbfe29118	-1.7700529
195	0x3f8a7780	1.0817719
196	0xc1025bd0	-8.147415
197	0xc03c7df2	-2.945187
198	0x3f8f11e5	1.1177336
199	0xc12ddf55	-10.867024
200	0x3f633ae4	0.88761735
201	0xbf824475	-1.0177141
202	0xc134ce07	-11.3003
203	0xbf4643e1	-0.77447325
204	0x3f3e6035	0.7436555
205	0xbe8a4e99	-0.2701309
206	0x3f848d82	1.0355685
207	0xc127c0b1	-10.484544
208	0xbecd3b33	-0.40084228
209	0xbecde06c	-0.40210283
210	0xbe66e9e9	-0.22550167
211	0x3e161eb2	0.14660147
212	0xbd8daebe	-0.06918095
213	0xbe10547d	-0.1409473
214	0xc004aa09	-2.0728781
215	0xbf010727	-0.5040154
216	0xc1066f93	-8.40224
217	0x3f2b6a96	0.6695951
218	0xc0233f26	-2.5507293
219	0xbe39a770	-0.18130279
220	0x3efed3b2	0.49770886
221	0xbd96d7ba	-0.07365365
222	0xc09fbc37	-4.9917254
223	0xbf9cea4e	-1.2259004
224	0xc0a0274c	-5.004797
225	0xbf2b9fbe	-0.6704062
226	0xc0d96e87	-6.794742
227	0x3f261421	0.64874464
228	0xc10dc30a	-8.860117
229	0xbf9ebe7b	-1.240188
230	0x3fc1af5f	1.5131644
231	0xbf8ad6ea	-1.0846837
232	0xc012faf7	-2.2965677
233	0xc020a616	-2.510137
234	0x3ff2b9c3	1.896294
235	0xbf9dec08	-1.2337656
236	0xc0b8df5c	-5.7772655
237	0xbf153914	-0.5829022
238	0x3f6cf944	0.9256785
239	0xc0c52f83	-6.16205
240	0x3f527ff8	0.82226515
241	0x3fd97d57	1.6991376
242	0xc0462cd9	-3.0964873
243	0xbda654f8	-0.08121675
244	0xc112dcf9	-9.178948
245	0xbf3913ec	-0.72296023
246	0xbdfc2c59	-0.12313146
247	0xc14989bf	-12.596129
248	0xbdbf5b0b	-0.09343537
249	0xbe94cee3	-0.29064092
250	0xbfd07789	-1.6286479
251	0x3d99284a	0.07478388
252	0xbfdccc43	-1.7249836
253	0x3eed8f20	0.46398258
254	0xbee1e2c1	-0.44118312
255	0xbfc68c4d	-1.5511566

l3.bias f4 [187]
0	0xbee69b30	-0.45040274
1	0xbff56a7a	-1.9173119
2	0x3e0c0ece	0.13677523
3	0xbf962352	-1.1729529
4	0xc00c4d40	-2.192215
5	0xc081f888	-4.0615883
6	0xbe269526	-0.16267833
7	0xbfbc4bd6	-1.4710643
8	0xbf2f1a7c	-0.68399787
9	0xc014ff91	-2.3280985
10	0xc0521ed7	-3.2831323
11	0xbfaf21f5	-1.3682238
12	0xbec1a598	-0.3782165
13	0xbf7d8d0d	-0.9904335
14	0xc04d8d60	-3.2117538
15	0xc0044caa	-2.0671792
16	0xbfac2a0f	-1.3450335
17	0xbe609a71	-0.21933915
18	0xbedf28d1	-0.43585828
19	0xbf01dd12	-0.5072795
20	0xc04fb164	-3.245202
21	0xbf4b7532	-0.794757
22	0xbeb90af3	-0.36141166
23	0xbfe2fdae	-1.7733667
24	0xbecfcd1f	-0.40586182
25	0x3f1ae70f	0.6050882
26	0xbf300283	-0.6875383
27	0xc04a44fc	-3.1604605
28	0xbfef8cda	-1.871486
29	0xbe983e99	-0.29735258
30	0xbfe7f3e9	-1.812131
31	0x3edeb46e	0.43497032
32	0x3dffb2aa	0.12485249
33	0xc019d5b9	-2.4036696
34	0xbfde5a54	-1.7371316
35	0xbf986a4e	-1.1907442
36	0xbf49eae5	-0.78874046
37	0xbe631c4b	-0.22178762
38	0x3f5bde14	0.8588574
39	0xbff30e3a	-1.8988717
40	0xc007d954	-2.1226397
41	0xbca5ba9a	-0.02023058
42	0xbf818f41	-1.0121843
43	0xbf3ddfe5	-0.7416976
44	0xbf41f4cf	-0.75764173
45	0xbe1b139d	-0.151442
46	0xbfa03ee3	-1.2519192
47	0xbf446961	-0.76723295
48	0xc009f6de	-2.1556926
49	0x3d732c9c	0.059368715
50	0xbdf2a689	-0.1184817
51	0x3e426d9c	0.18987125
52	0xbe84b0ca	-0.2591613
53	0xc006e105	-2.107484
54	0xbf026fdb	-0.5095193
55	0xc0133b8c	-2.3005095
56	0xbe5959e1	-0.21225692
57	0xbf11b3c6	-0.5691494
58	0x3e8948af	0.26813266
59	0xbf044f4b	-0.5168349
60	0x3eec0950	0.46100855
61	0xbc907285	-0.017632732
62	0xbf0c14e4	-0.54719377
63	0xc00df366	-2.2179809
64	0xbf581c30	-0.8441801
65	0xc0260320	-2.5939407
66	0xbe6261ca	-0.22107616
67	0xc0414f8c	-3.0204802
68	0xc0875171	-4.2286916
69	0xc0020320	-2.0314407
70	0x3d4eaf1a	0.05045996
71	0x3f0c50c8	0.5481076
72	0xbff1c5dc	-1.8888507
73	0xbf0b7511	-0.54475504
74	0x3eaaa42e	0.33328384
75	0xc04e43f9	-3.2228987
76	0xbf4a62b2	-0.7905685
77	0x3ead1240	0.33802986
78	0x3e094b6d	0.13407679
79	0xbfb7b7f7	-1.4353017
80	0xbee54726	-0.44780844
81	0x3f972804	1.1809087
82	0xbf95b586	-1.1696022
83	0xc0442c4b	-3.0652034
84	0xbfe1a296	-1.7627742
85	0xc01ada46	-2.4195724
86	0xbfa589a1	-1.2932626
87	0xc0550373	-3.3283355
88	0x3dbc9758	0.09208554
89	0xc071b5a7	-3.7767122
90	0xbfc8b5d3	-1.5680488
91	0xbfa437a6	-1.2829483
92	0xbf92fc8d	-1.1483322
93	0xc095672f	-4.6688457
94	0x3f9b14b7	1.2115697
95	0xc02e6fcf	-2.7255743
96	0xbed55428	-0.4166577
97	0xbfb77edc	-1.433559
98	0xc0183ab3	-2.3785827
99	0xbda472dc	-0.0802972
100	0xc026e8de	-2.607963
101	0xbffd852a	-1.9806263
102	0xc040f24d	-3.0147889
103	0x3f20742b	0.6267726
104	0xbf1e27ca	-0.61779463
105	0xbf418e63	-0.7560789
106	0xbfb2f79c	-1.3981814
107	0x3f0fabd7	0.5612158
108	0x3edd3676	0.43205613
109	0xbdc2cfb9	-0.09512276
110	0xbfcf1156	-1.6177166
111	0xbf750285	-0.9570697
112	0xc00caafe	-2.1979365
113	0xc04be912	-3.1861005
114	0x3e19808e	0.14990446
115	0xbfb4627b	-1.4092554
116	0x3eb8b486	0.36075228
117	0xc02cce5d	-2.7000954
118	0xbebc36a1	-0.3676043
119	0xbf970ea5	-1.1801344
120	0xbfdb90ef	-1.7153605
121	0xbfd662bb	-1.674888
122	0xbfb10fb9	-1.3832923
123	0xbec47790	-0.3837247
124	0xbe9f9752	-0.31170136
125	0xc0232ff8	-2.5498028
126	0xbef7e021	-0.48413184
127	0xbea0ad34	-0.31382143
128	0xbf1af71a	-0.605333
129	0xbfb3f18c	-1.4058089
130	0x3e82a0dd	0.25513354
131	0xbf2cc086	-0.6748127
132	0xbed2b093	-0.4115034
133	0x3e74f676	0.23922142
134	0xbf8590d5	-1.0434824
135	0xbf67e766	-0.9058746
136	0xc018c7fe	-2.3872066
137	0xc019838c	-2.398654
138	0xbfb5348a	-1.4156659
139	0xc01cbc19	-2.4489806
140	0xc03d5e5d	-2.9588845
141	0xbfe8d2df	-1.8189353
142	0xbfdef66e	-1.7418954
143	0xbe408a20	-0.1880269
144	0xbeaded19	-0.33969954
145	0xbfd31d50	-1.649332
146	0xc01f60b3	-2.490277
147	0xbe2d4f33	-0.16924743
148	0xbf96bd6e	-1.1776559
149	0xbfad0480	-1.3516998
150	0x3f034cb7	0.5128893
151	0x3f5f2d29	0.87178284
152	0x3ec546a6	0.38530463
153	0xc01fc12d	-2.4961655
154	0xc00bc7cf	-2.1840703
155	0xbec9b53c	-0.39396083
156	0xc004740b	-2.0695827
157	0xc0967264	-4.7014637
158	0xc021f678	-2.5306683
159	0xbf107bd4	-0.56438947
160	0xc04eafde	-3.229484
161	0xc0356aae	-2.8346362
162	0x3f898c78	1.0745993
163	0xc0186f73	-2.3818023
164	0xc0513273	-3.2687042
165	0xbd0cc83f	-0.034370657
166	0xc006558a	-2.098971
167	0xbe2d7802	-0.1694031
168	0xc05c84f3	-3.4456146
169	0x3ee2b18f	0.4427609
170	0x3d63aa31	0.05558223
171	0xc0579c93	-3.3689315
172	0xc01f8342	-2.4923863
173	0xbfe27a99	-1.7693664
174	0xbf9e1ed9	-1.2353164
175	0x3edc19c2	0.42988402
176	0xc01a540f	-2.4113805
177	0xbfc12a74	-1.5091081
178	0xc02f83eb	-2.7424266
179	0xbfeb5bf3	-1.8387436
180	0xbfaaee49	-1.3353969
181	0xbf0c57a0	-0.54821205
182	0x3f2fc984	0.68666863
183	0xbede318d	-0.4339718
184	0xbe9ff5a7	-0.31242105
185	0xbeb386cc	-0.3506378
186	0xbfbcad0a	-1.4740307
